{"modelTopology": {"keras_version": "2.2.4", "backend": "tensorflow", "model_config": {"class_name": "Model", "config": {"name": "model_1", "input_layers": [["input_1", 0, 0]], "output_layers": [["predictions", 0, 0]], "layers": [{"name": "input_1", "config": {"sparse": false, "name": "input_1", "dtype": "float32", "batch_input_shape": [null, 128, 128, 3]}, "class_name": "InputLayer", "inbound_nodes": []}, {"name": "Conv1_pad", "config": {"name": "Conv1_pad", "data_format": "channels_last", "trainable": true, "padding": [[0, 1], [0, 1]]}, "class_name": "ZeroPadding2D", "inbound_nodes": [[["input_1", 0, 0, {}]]]}, {"name": "Conv1", "config": {"kernel_constraint": null, "kernel_initializer": {"class_name": "VarianceScaling", "config": {"scale": 1.0, "mode": "fan_avg", "distribution": "uniform", "seed": null}}, "kernel_size": [3, 3], "dilation_rate": [1, 1], "padding": "valid", "bias_constraint": null, "trainable": true, "data_format": "channels_last", "activity_regularizer": null, "use_bias": false, "strides": [2, 2], "filters": 32, "name": "Conv1", "bias_initializer": {"class_name": "Zeros", "config": {}}, "kernel_regularizer": null, "activation": "linear", "bias_regularizer": null}, "class_name": "Conv2D", "inbound_nodes": [[["Conv1_pad", 0, 0, {}]]]}, {"name": "bn_Conv1", "config": {"beta_initializer": {"class_name": "Zeros", "config": {}}, "center": true, "momentum": 0.999, "trainable": true, "gamma_constraint": null, "beta_regularizer": null, "axis": -1, "scale": true, "gamma_regularizer": null, "epsilon": 0.001, "name": "bn_Conv1", "gamma_initializer": {"class_name": "Ones", "config": {}}, "beta_constraint": null, "moving_variance_initializer": {"class_name": "Ones", "config": {}}, "moving_mean_initializer": {"class_name": "Zeros", "config": {}}}, "class_name": "BatchNormalization", "inbound_nodes": [[["Conv1", 0, 0, {}]]]}, {"name": "Conv1_relu", "config": {"name": "Conv1_relu", "max_value": 6.0, "threshold": 0.0, "trainable": true, "negative_slope": 0.0}, "class_name": "ReLU", "inbound_nodes": [[["bn_Conv1", 0, 0, {}]]]}, {"name": "expanded_conv_depthwise", "config": {"depthwise_regularizer": null, "name": "expanded_conv_depthwise", "kernel_size": [3, 3], "dilation_rate": [1, 1], "depthwise_initializer": {"class_name": "VarianceScaling", "config": {"scale": 1.0, "mode": "fan_avg", "distribution": "uniform", "seed": null}}, "depth_multiplier": 1, "bias_constraint": null, "trainable": true, "data_format": "channels_last", "depthwise_constraint": null, "use_bias": false, "strides": [1, 1], "padding": "same", "activity_regularizer": null, "bias_initializer": {"class_name": "Zeros", "config": {}}, "activation": "linear", "bias_regularizer": null}, "class_name": "DepthwiseConv2D", "inbound_nodes": [[["Conv1_relu", 0, 0, {}]]]}, {"name": "expanded_conv_depthwise_BN", "config": {"beta_initializer": {"class_name": "Zeros", "config": {}}, "center": true, "momentum": 0.999, "trainable": true, "gamma_constraint": null, "beta_regularizer": null, "axis": -1, "scale": true, "gamma_regularizer": null, "epsilon": 0.001, "name": "expanded_conv_depthwise_BN", "gamma_initializer": {"class_name": "Ones", "config": {}}, "beta_constraint": null, "moving_variance_initializer": {"class_name": "Ones", "config": {}}, "moving_mean_initializer": {"class_name": "Zeros", "config": {}}}, "class_name": "BatchNormalization", "inbound_nodes": [[["expanded_conv_depthwise", 0, 0, {}]]]}, {"name": "expanded_conv_depthwise_relu", "config": {"name": "expanded_conv_depthwise_relu", "max_value": 6.0, "threshold": 0.0, "trainable": true, "negative_slope": 0.0}, "class_name": "ReLU", "inbound_nodes": [[["expanded_conv_depthwise_BN", 0, 0, {}]]]}, {"name": "expanded_conv_project", "config": {"kernel_constraint": null, "kernel_initializer": {"class_name": "VarianceScaling", "config": {"scale": 1.0, "mode": "fan_avg", "distribution": "uniform", "seed": null}}, "kernel_size": [1, 1], "dilation_rate": [1, 1], "padding": "same", "bias_constraint": null, "trainable": true, "data_format": "channels_last", "activity_regularizer": null, "use_bias": false, "strides": [1, 1], "filters": 16, "name": "expanded_conv_project", "bias_initializer": {"class_name": "Zeros", "config": {}}, "kernel_regularizer": null, "activation": "linear", "bias_regularizer": null}, "class_name": "Conv2D", "inbound_nodes": [[["expanded_conv_depthwise_relu", 0, 0, {}]]]}, {"name": "expanded_conv_project_BN", "config": {"beta_initializer": {"class_name": "Zeros", "config": {}}, "center": true, "momentum": 0.999, "trainable": true, "gamma_constraint": null, "beta_regularizer": null, "axis": -1, "scale": true, "gamma_regularizer": null, "epsilon": 0.001, "name": "expanded_conv_project_BN", "gamma_initializer": {"class_name": "Ones", "config": {}}, "beta_constraint": null, "moving_variance_initializer": {"class_name": "Ones", "config": {}}, "moving_mean_initializer": {"class_name": "Zeros", "config": {}}}, "class_name": "BatchNormalization", "inbound_nodes": [[["expanded_conv_project", 0, 0, {}]]]}, {"name": "block_1_expand", "config": {"kernel_constraint": null, "kernel_initializer": {"class_name": "VarianceScaling", "config": {"scale": 1.0, "mode": "fan_avg", "distribution": "uniform", "seed": null}}, "kernel_size": [1, 1], "dilation_rate": [1, 1], "padding": "same", "bias_constraint": null, "trainable": true, "data_format": "channels_last", "activity_regularizer": null, "use_bias": false, "strides": [1, 1], "filters": 96, "name": "block_1_expand", "bias_initializer": {"class_name": "Zeros", "config": {}}, "kernel_regularizer": null, "activation": "linear", "bias_regularizer": null}, "class_name": "Conv2D", "inbound_nodes": [[["expanded_conv_project_BN", 0, 0, {}]]]}, {"name": "block_1_expand_BN", "config": {"beta_initializer": {"class_name": "Zeros", "config": {}}, "center": true, "momentum": 0.999, "trainable": true, "gamma_constraint": null, "beta_regularizer": null, "axis": -1, "scale": true, "gamma_regularizer": null, "epsilon": 0.001, "name": "block_1_expand_BN", "gamma_initializer": {"class_name": "Ones", "config": {}}, "beta_constraint": null, "moving_variance_initializer": {"class_name": "Ones", "config": {}}, "moving_mean_initializer": {"class_name": "Zeros", "config": {}}}, "class_name": "BatchNormalization", "inbound_nodes": [[["block_1_expand", 0, 0, {}]]]}, {"name": "block_1_expand_relu", "config": {"name": "block_1_expand_relu", "max_value": 6.0, "threshold": 0.0, "trainable": true, "negative_slope": 0.0}, "class_name": "ReLU", "inbound_nodes": [[["block_1_expand_BN", 0, 0, {}]]]}, {"name": "block_1_pad", "config": {"name": "block_1_pad", "data_format": "channels_last", "trainable": true, "padding": [[0, 1], [0, 1]]}, "class_name": "ZeroPadding2D", "inbound_nodes": [[["block_1_expand_relu", 0, 0, {}]]]}, {"name": "block_1_depthwise", "config": {"depthwise_regularizer": null, "name": "block_1_depthwise", "kernel_size": [3, 3], "dilation_rate": [1, 1], "depthwise_initializer": {"class_name": "VarianceScaling", "config": {"scale": 1.0, "mode": "fan_avg", "distribution": "uniform", "seed": null}}, "depth_multiplier": 1, "bias_constraint": null, "trainable": true, "data_format": "channels_last", "depthwise_constraint": null, "use_bias": false, "strides": [2, 2], "padding": "valid", "activity_regularizer": null, "bias_initializer": {"class_name": "Zeros", "config": {}}, "activation": "linear", "bias_regularizer": null}, "class_name": "DepthwiseConv2D", "inbound_nodes": [[["block_1_pad", 0, 0, {}]]]}, {"name": "block_1_depthwise_BN", "config": {"beta_initializer": {"class_name": "Zeros", "config": {}}, "center": true, "momentum": 0.999, "trainable": true, "gamma_constraint": null, "beta_regularizer": null, "axis": -1, "scale": true, "gamma_regularizer": null, "epsilon": 0.001, "name": "block_1_depthwise_BN", "gamma_initializer": {"class_name": "Ones", "config": {}}, "beta_constraint": null, "moving_variance_initializer": {"class_name": "Ones", "config": {}}, "moving_mean_initializer": {"class_name": "Zeros", "config": {}}}, "class_name": "BatchNormalization", "inbound_nodes": [[["block_1_depthwise", 0, 0, {}]]]}, {"name": "block_1_depthwise_relu", "config": {"name": "block_1_depthwise_relu", "max_value": 6.0, "threshold": 0.0, "trainable": true, "negative_slope": 0.0}, "class_name": "ReLU", "inbound_nodes": [[["block_1_depthwise_BN", 0, 0, {}]]]}, {"name": "block_1_project", "config": {"kernel_constraint": null, "kernel_initializer": {"class_name": "VarianceScaling", "config": {"scale": 1.0, "mode": "fan_avg", "distribution": "uniform", "seed": null}}, "kernel_size": [1, 1], "dilation_rate": [1, 1], "padding": "same", "bias_constraint": null, "trainable": true, "data_format": "channels_last", "activity_regularizer": null, "use_bias": false, "strides": [1, 1], "filters": 24, "name": "block_1_project", "bias_initializer": {"class_name": "Zeros", "config": {}}, "kernel_regularizer": null, "activation": "linear", "bias_regularizer": null}, "class_name": "Conv2D", "inbound_nodes": [[["block_1_depthwise_relu", 0, 0, {}]]]}, {"name": "block_1_project_BN", "config": {"beta_initializer": {"class_name": "Zeros", "config": {}}, "center": true, "momentum": 0.999, "trainable": true, "gamma_constraint": null, "beta_regularizer": null, "axis": -1, "scale": true, "gamma_regularizer": null, "epsilon": 0.001, "name": "block_1_project_BN", "gamma_initializer": {"class_name": "Ones", "config": {}}, "beta_constraint": null, "moving_variance_initializer": {"class_name": "Ones", "config": {}}, "moving_mean_initializer": {"class_name": "Zeros", "config": {}}}, "class_name": "BatchNormalization", "inbound_nodes": [[["block_1_project", 0, 0, {}]]]}, {"name": "block_2_expand", "config": {"kernel_constraint": null, "kernel_initializer": {"class_name": "VarianceScaling", "config": {"scale": 1.0, "mode": "fan_avg", "distribution": "uniform", "seed": null}}, "kernel_size": [1, 1], "dilation_rate": [1, 1], "padding": "same", "bias_constraint": null, "trainable": true, "data_format": "channels_last", "activity_regularizer": null, "use_bias": false, "strides": [1, 1], "filters": 144, "name": "block_2_expand", "bias_initializer": {"class_name": "Zeros", "config": {}}, "kernel_regularizer": null, "activation": "linear", "bias_regularizer": null}, "class_name": "Conv2D", "inbound_nodes": [[["block_1_project_BN", 0, 0, {}]]]}, {"name": "block_2_expand_BN", "config": {"beta_initializer": {"class_name": "Zeros", "config": {}}, "center": true, "momentum": 0.999, "trainable": true, "gamma_constraint": null, "beta_regularizer": null, "axis": -1, "scale": true, "gamma_regularizer": null, "epsilon": 0.001, "name": "block_2_expand_BN", "gamma_initializer": {"class_name": "Ones", "config": {}}, "beta_constraint": null, "moving_variance_initializer": {"class_name": "Ones", "config": {}}, "moving_mean_initializer": {"class_name": "Zeros", "config": {}}}, "class_name": "BatchNormalization", "inbound_nodes": [[["block_2_expand", 0, 0, {}]]]}, {"name": "block_2_expand_relu", "config": {"name": "block_2_expand_relu", "max_value": 6.0, "threshold": 0.0, "trainable": true, "negative_slope": 0.0}, "class_name": "ReLU", "inbound_nodes": [[["block_2_expand_BN", 0, 0, {}]]]}, {"name": "block_2_depthwise", "config": {"depthwise_regularizer": null, "name": "block_2_depthwise", "kernel_size": [3, 3], "dilation_rate": [1, 1], "depthwise_initializer": {"class_name": "VarianceScaling", "config": {"scale": 1.0, "mode": "fan_avg", "distribution": "uniform", "seed": null}}, "depth_multiplier": 1, "bias_constraint": null, "trainable": true, "data_format": "channels_last", "depthwise_constraint": null, "use_bias": false, "strides": [1, 1], "padding": "same", "activity_regularizer": null, "bias_initializer": {"class_name": "Zeros", "config": {}}, "activation": "linear", "bias_regularizer": null}, "class_name": "DepthwiseConv2D", "inbound_nodes": [[["block_2_expand_relu", 0, 0, {}]]]}, {"name": "block_2_depthwise_BN", "config": {"beta_initializer": {"class_name": "Zeros", "config": {}}, "center": true, "momentum": 0.999, "trainable": true, "gamma_constraint": null, "beta_regularizer": null, "axis": -1, "scale": true, "gamma_regularizer": null, "epsilon": 0.001, "name": "block_2_depthwise_BN", "gamma_initializer": {"class_name": "Ones", "config": {}}, "beta_constraint": null, "moving_variance_initializer": {"class_name": "Ones", "config": {}}, "moving_mean_initializer": {"class_name": "Zeros", "config": {}}}, "class_name": "BatchNormalization", "inbound_nodes": [[["block_2_depthwise", 0, 0, {}]]]}, {"name": "block_2_depthwise_relu", "config": {"name": "block_2_depthwise_relu", "max_value": 6.0, "threshold": 0.0, "trainable": true, "negative_slope": 0.0}, "class_name": "ReLU", "inbound_nodes": [[["block_2_depthwise_BN", 0, 0, {}]]]}, {"name": "block_2_project", "config": {"kernel_constraint": null, "kernel_initializer": {"class_name": "VarianceScaling", "config": {"scale": 1.0, "mode": "fan_avg", "distribution": "uniform", "seed": null}}, "kernel_size": [1, 1], "dilation_rate": [1, 1], "padding": "same", "bias_constraint": null, "trainable": true, "data_format": "channels_last", "activity_regularizer": null, "use_bias": false, "strides": [1, 1], "filters": 24, "name": "block_2_project", "bias_initializer": {"class_name": "Zeros", "config": {}}, "kernel_regularizer": null, "activation": "linear", "bias_regularizer": null}, "class_name": "Conv2D", "inbound_nodes": [[["block_2_depthwise_relu", 0, 0, {}]]]}, {"name": "block_2_project_BN", "config": {"beta_initializer": {"class_name": "Zeros", "config": {}}, "center": true, "momentum": 0.999, "trainable": true, "gamma_constraint": null, "beta_regularizer": null, "axis": -1, "scale": true, "gamma_regularizer": null, "epsilon": 0.001, "name": "block_2_project_BN", "gamma_initializer": {"class_name": "Ones", "config": {}}, "beta_constraint": null, "moving_variance_initializer": {"class_name": "Ones", "config": {}}, "moving_mean_initializer": {"class_name": "Zeros", "config": {}}}, "class_name": "BatchNormalization", "inbound_nodes": [[["block_2_project", 0, 0, {}]]]}, {"name": "block_2_add", "config": {"name": "block_2_add", "trainable": true}, "class_name": "Add", "inbound_nodes": [[["block_1_project_BN", 0, 0, {}], ["block_2_project_BN", 0, 0, {}]]]}, {"name": "block_3_expand", "config": {"kernel_constraint": null, "kernel_initializer": {"class_name": "VarianceScaling", "config": {"scale": 1.0, "mode": "fan_avg", "distribution": "uniform", "seed": null}}, "kernel_size": [1, 1], "dilation_rate": [1, 1], "padding": "same", "bias_constraint": null, "trainable": true, "data_format": "channels_last", "activity_regularizer": null, "use_bias": false, "strides": [1, 1], "filters": 144, "name": "block_3_expand", "bias_initializer": {"class_name": "Zeros", "config": {}}, "kernel_regularizer": null, "activation": "linear", "bias_regularizer": null}, "class_name": "Conv2D", "inbound_nodes": [[["block_2_add", 0, 0, {}]]]}, {"name": "block_3_expand_BN", "config": {"beta_initializer": {"class_name": "Zeros", "config": {}}, "center": true, "momentum": 0.999, "trainable": true, "gamma_constraint": null, "beta_regularizer": null, "axis": -1, "scale": true, "gamma_regularizer": null, "epsilon": 0.001, "name": "block_3_expand_BN", "gamma_initializer": {"class_name": "Ones", "config": {}}, "beta_constraint": null, "moving_variance_initializer": {"class_name": "Ones", "config": {}}, "moving_mean_initializer": {"class_name": "Zeros", "config": {}}}, "class_name": "BatchNormalization", "inbound_nodes": [[["block_3_expand", 0, 0, {}]]]}, {"name": "block_3_expand_relu", "config": {"name": "block_3_expand_relu", "max_value": 6.0, "threshold": 0.0, "trainable": true, "negative_slope": 0.0}, "class_name": "ReLU", "inbound_nodes": [[["block_3_expand_BN", 0, 0, {}]]]}, {"name": "block_3_pad", "config": {"name": "block_3_pad", "data_format": "channels_last", "trainable": true, "padding": [[0, 1], [0, 1]]}, "class_name": "ZeroPadding2D", "inbound_nodes": [[["block_3_expand_relu", 0, 0, {}]]]}, {"name": "block_3_depthwise", "config": {"depthwise_regularizer": null, "name": "block_3_depthwise", "kernel_size": [3, 3], "dilation_rate": [1, 1], "depthwise_initializer": {"class_name": "VarianceScaling", "config": {"scale": 1.0, "mode": "fan_avg", "distribution": "uniform", "seed": null}}, "depth_multiplier": 1, "bias_constraint": null, "trainable": true, "data_format": "channels_last", "depthwise_constraint": null, "use_bias": false, "strides": [2, 2], "padding": "valid", "activity_regularizer": null, "bias_initializer": {"class_name": "Zeros", "config": {}}, "activation": "linear", "bias_regularizer": null}, "class_name": "DepthwiseConv2D", "inbound_nodes": [[["block_3_pad", 0, 0, {}]]]}, {"name": "block_3_depthwise_BN", "config": {"beta_initializer": {"class_name": "Zeros", "config": {}}, "center": true, "momentum": 0.999, "trainable": true, "gamma_constraint": null, "beta_regularizer": null, "axis": -1, "scale": true, "gamma_regularizer": null, "epsilon": 0.001, "name": "block_3_depthwise_BN", "gamma_initializer": {"class_name": "Ones", "config": {}}, "beta_constraint": null, "moving_variance_initializer": {"class_name": "Ones", "config": {}}, "moving_mean_initializer": {"class_name": "Zeros", "config": {}}}, "class_name": "BatchNormalization", "inbound_nodes": [[["block_3_depthwise", 0, 0, {}]]]}, {"name": "block_3_depthwise_relu", "config": {"name": "block_3_depthwise_relu", "max_value": 6.0, "threshold": 0.0, "trainable": true, "negative_slope": 0.0}, "class_name": "ReLU", "inbound_nodes": [[["block_3_depthwise_BN", 0, 0, {}]]]}, {"name": "block_3_project", "config": {"kernel_constraint": null, "kernel_initializer": {"class_name": "VarianceScaling", "config": {"scale": 1.0, "mode": "fan_avg", "distribution": "uniform", "seed": null}}, "kernel_size": [1, 1], "dilation_rate": [1, 1], "padding": "same", "bias_constraint": null, "trainable": true, "data_format": "channels_last", "activity_regularizer": null, "use_bias": false, "strides": [1, 1], "filters": 32, "name": "block_3_project", "bias_initializer": {"class_name": "Zeros", "config": {}}, "kernel_regularizer": null, "activation": "linear", "bias_regularizer": null}, "class_name": "Conv2D", "inbound_nodes": [[["block_3_depthwise_relu", 0, 0, {}]]]}, {"name": "block_3_project_BN", "config": {"beta_initializer": {"class_name": "Zeros", "config": {}}, "center": true, "momentum": 0.999, "trainable": true, "gamma_constraint": null, "beta_regularizer": null, "axis": -1, "scale": true, "gamma_regularizer": null, "epsilon": 0.001, "name": "block_3_project_BN", "gamma_initializer": {"class_name": "Ones", "config": {}}, "beta_constraint": null, "moving_variance_initializer": {"class_name": "Ones", "config": {}}, "moving_mean_initializer": {"class_name": "Zeros", "config": {}}}, "class_name": "BatchNormalization", "inbound_nodes": [[["block_3_project", 0, 0, {}]]]}, {"name": "block_4_expand", "config": {"kernel_constraint": null, "kernel_initializer": {"class_name": "VarianceScaling", "config": {"scale": 1.0, "mode": "fan_avg", "distribution": "uniform", "seed": null}}, "kernel_size": [1, 1], "dilation_rate": [1, 1], "padding": "same", "bias_constraint": null, "trainable": true, "data_format": "channels_last", "activity_regularizer": null, "use_bias": false, "strides": [1, 1], "filters": 192, "name": "block_4_expand", "bias_initializer": {"class_name": "Zeros", "config": {}}, "kernel_regularizer": null, "activation": "linear", "bias_regularizer": null}, "class_name": "Conv2D", "inbound_nodes": [[["block_3_project_BN", 0, 0, {}]]]}, {"name": "block_4_expand_BN", "config": {"beta_initializer": {"class_name": "Zeros", "config": {}}, "center": true, "momentum": 0.999, "trainable": true, "gamma_constraint": null, "beta_regularizer": null, "axis": -1, "scale": true, "gamma_regularizer": null, "epsilon": 0.001, "name": "block_4_expand_BN", "gamma_initializer": {"class_name": "Ones", "config": {}}, "beta_constraint": null, "moving_variance_initializer": {"class_name": "Ones", "config": {}}, "moving_mean_initializer": {"class_name": "Zeros", "config": {}}}, "class_name": "BatchNormalization", "inbound_nodes": [[["block_4_expand", 0, 0, {}]]]}, {"name": "block_4_expand_relu", "config": {"name": "block_4_expand_relu", "max_value": 6.0, "threshold": 0.0, "trainable": true, "negative_slope": 0.0}, "class_name": "ReLU", "inbound_nodes": [[["block_4_expand_BN", 0, 0, {}]]]}, {"name": "block_4_depthwise", "config": {"depthwise_regularizer": null, "name": "block_4_depthwise", "kernel_size": [3, 3], "dilation_rate": [1, 1], "depthwise_initializer": {"class_name": "VarianceScaling", "config": {"scale": 1.0, "mode": "fan_avg", "distribution": "uniform", "seed": null}}, "depth_multiplier": 1, "bias_constraint": null, "trainable": true, "data_format": "channels_last", "depthwise_constraint": null, "use_bias": false, "strides": [1, 1], "padding": "same", "activity_regularizer": null, "bias_initializer": {"class_name": "Zeros", "config": {}}, "activation": "linear", "bias_regularizer": null}, "class_name": "DepthwiseConv2D", "inbound_nodes": [[["block_4_expand_relu", 0, 0, {}]]]}, {"name": "block_4_depthwise_BN", "config": {"beta_initializer": {"class_name": "Zeros", "config": {}}, "center": true, "momentum": 0.999, "trainable": true, "gamma_constraint": null, "beta_regularizer": null, "axis": -1, "scale": true, "gamma_regularizer": null, "epsilon": 0.001, "name": "block_4_depthwise_BN", "gamma_initializer": {"class_name": "Ones", "config": {}}, "beta_constraint": null, "moving_variance_initializer": {"class_name": "Ones", "config": {}}, "moving_mean_initializer": {"class_name": "Zeros", "config": {}}}, "class_name": "BatchNormalization", "inbound_nodes": [[["block_4_depthwise", 0, 0, {}]]]}, {"name": "block_4_depthwise_relu", "config": {"name": "block_4_depthwise_relu", "max_value": 6.0, "threshold": 0.0, "trainable": true, "negative_slope": 0.0}, "class_name": "ReLU", "inbound_nodes": [[["block_4_depthwise_BN", 0, 0, {}]]]}, {"name": "block_4_project", "config": {"kernel_constraint": null, "kernel_initializer": {"class_name": "VarianceScaling", "config": {"scale": 1.0, "mode": "fan_avg", "distribution": "uniform", "seed": null}}, "kernel_size": [1, 1], "dilation_rate": [1, 1], "padding": "same", "bias_constraint": null, "trainable": true, "data_format": "channels_last", "activity_regularizer": null, "use_bias": false, "strides": [1, 1], "filters": 32, "name": "block_4_project", "bias_initializer": {"class_name": "Zeros", "config": {}}, "kernel_regularizer": null, "activation": "linear", "bias_regularizer": null}, "class_name": "Conv2D", "inbound_nodes": [[["block_4_depthwise_relu", 0, 0, {}]]]}, {"name": "block_4_project_BN", "config": {"beta_initializer": {"class_name": "Zeros", "config": {}}, "center": true, "momentum": 0.999, "trainable": true, "gamma_constraint": null, "beta_regularizer": null, "axis": -1, "scale": true, "gamma_regularizer": null, "epsilon": 0.001, "name": "block_4_project_BN", "gamma_initializer": {"class_name": "Ones", "config": {}}, "beta_constraint": null, "moving_variance_initializer": {"class_name": "Ones", "config": {}}, "moving_mean_initializer": {"class_name": "Zeros", "config": {}}}, "class_name": "BatchNormalization", "inbound_nodes": [[["block_4_project", 0, 0, {}]]]}, {"name": "block_4_add", "config": {"name": "block_4_add", "trainable": true}, "class_name": "Add", "inbound_nodes": [[["block_3_project_BN", 0, 0, {}], ["block_4_project_BN", 0, 0, {}]]]}, {"name": "block_5_expand", "config": {"kernel_constraint": null, "kernel_initializer": {"class_name": "VarianceScaling", "config": {"scale": 1.0, "mode": "fan_avg", "distribution": "uniform", "seed": null}}, "kernel_size": [1, 1], "dilation_rate": [1, 1], "padding": "same", "bias_constraint": null, "trainable": true, "data_format": "channels_last", "activity_regularizer": null, "use_bias": false, "strides": [1, 1], "filters": 192, "name": "block_5_expand", "bias_initializer": {"class_name": "Zeros", "config": {}}, "kernel_regularizer": null, "activation": "linear", "bias_regularizer": null}, "class_name": "Conv2D", "inbound_nodes": [[["block_4_add", 0, 0, {}]]]}, {"name": "block_5_expand_BN", "config": {"beta_initializer": {"class_name": "Zeros", "config": {}}, "center": true, "momentum": 0.999, "trainable": true, "gamma_constraint": null, "beta_regularizer": null, "axis": -1, "scale": true, "gamma_regularizer": null, "epsilon": 0.001, "name": "block_5_expand_BN", "gamma_initializer": {"class_name": "Ones", "config": {}}, "beta_constraint": null, "moving_variance_initializer": {"class_name": "Ones", "config": {}}, "moving_mean_initializer": {"class_name": "Zeros", "config": {}}}, "class_name": "BatchNormalization", "inbound_nodes": [[["block_5_expand", 0, 0, {}]]]}, {"name": "block_5_expand_relu", "config": {"name": "block_5_expand_relu", "max_value": 6.0, "threshold": 0.0, "trainable": true, "negative_slope": 0.0}, "class_name": "ReLU", "inbound_nodes": [[["block_5_expand_BN", 0, 0, {}]]]}, {"name": "block_5_depthwise", "config": {"depthwise_regularizer": null, "name": "block_5_depthwise", "kernel_size": [3, 3], "dilation_rate": [1, 1], "depthwise_initializer": {"class_name": "VarianceScaling", "config": {"scale": 1.0, "mode": "fan_avg", "distribution": "uniform", "seed": null}}, "depth_multiplier": 1, "bias_constraint": null, "trainable": true, "data_format": "channels_last", "depthwise_constraint": null, "use_bias": false, "strides": [1, 1], "padding": "same", "activity_regularizer": null, "bias_initializer": {"class_name": "Zeros", "config": {}}, "activation": "linear", "bias_regularizer": null}, "class_name": "DepthwiseConv2D", "inbound_nodes": [[["block_5_expand_relu", 0, 0, {}]]]}, {"name": "block_5_depthwise_BN", "config": {"beta_initializer": {"class_name": "Zeros", "config": {}}, "center": true, "momentum": 0.999, "trainable": true, "gamma_constraint": null, "beta_regularizer": null, "axis": -1, "scale": true, "gamma_regularizer": null, "epsilon": 0.001, "name": "block_5_depthwise_BN", "gamma_initializer": {"class_name": "Ones", "config": {}}, "beta_constraint": null, "moving_variance_initializer": {"class_name": "Ones", "config": {}}, "moving_mean_initializer": {"class_name": "Zeros", "config": {}}}, "class_name": "BatchNormalization", "inbound_nodes": [[["block_5_depthwise", 0, 0, {}]]]}, {"name": "block_5_depthwise_relu", "config": {"name": "block_5_depthwise_relu", "max_value": 6.0, "threshold": 0.0, "trainable": true, "negative_slope": 0.0}, "class_name": "ReLU", "inbound_nodes": [[["block_5_depthwise_BN", 0, 0, {}]]]}, {"name": "block_5_project", "config": {"kernel_constraint": null, "kernel_initializer": {"class_name": "VarianceScaling", "config": {"scale": 1.0, "mode": "fan_avg", "distribution": "uniform", "seed": null}}, "kernel_size": [1, 1], "dilation_rate": [1, 1], "padding": "same", "bias_constraint": null, "trainable": true, "data_format": "channels_last", "activity_regularizer": null, "use_bias": false, "strides": [1, 1], "filters": 32, "name": "block_5_project", "bias_initializer": {"class_name": "Zeros", "config": {}}, "kernel_regularizer": null, "activation": "linear", "bias_regularizer": null}, "class_name": "Conv2D", "inbound_nodes": [[["block_5_depthwise_relu", 0, 0, {}]]]}, {"name": "block_5_project_BN", "config": {"beta_initializer": {"class_name": "Zeros", "config": {}}, "center": true, "momentum": 0.999, "trainable": true, "gamma_constraint": null, "beta_regularizer": null, "axis": -1, "scale": true, "gamma_regularizer": null, "epsilon": 0.001, "name": "block_5_project_BN", "gamma_initializer": {"class_name": "Ones", "config": {}}, "beta_constraint": null, "moving_variance_initializer": {"class_name": "Ones", "config": {}}, "moving_mean_initializer": {"class_name": "Zeros", "config": {}}}, "class_name": "BatchNormalization", "inbound_nodes": [[["block_5_project", 0, 0, {}]]]}, {"name": "block_5_add", "config": {"name": "block_5_add", "trainable": true}, "class_name": "Add", "inbound_nodes": [[["block_4_add", 0, 0, {}], ["block_5_project_BN", 0, 0, {}]]]}, {"name": "block_6_expand", "config": {"kernel_constraint": null, "kernel_initializer": {"class_name": "VarianceScaling", "config": {"scale": 1.0, "mode": "fan_avg", "distribution": "uniform", "seed": null}}, "kernel_size": [1, 1], "dilation_rate": [1, 1], "padding": "same", "bias_constraint": null, "trainable": true, "data_format": "channels_last", "activity_regularizer": null, "use_bias": false, "strides": [1, 1], "filters": 192, "name": "block_6_expand", "bias_initializer": {"class_name": "Zeros", "config": {}}, "kernel_regularizer": null, "activation": "linear", "bias_regularizer": null}, "class_name": "Conv2D", "inbound_nodes": [[["block_5_add", 0, 0, {}]]]}, {"name": "block_6_expand_BN", "config": {"beta_initializer": {"class_name": "Zeros", "config": {}}, "center": true, "momentum": 0.999, "trainable": true, "gamma_constraint": null, "beta_regularizer": null, "axis": -1, "scale": true, "gamma_regularizer": null, "epsilon": 0.001, "name": "block_6_expand_BN", "gamma_initializer": {"class_name": "Ones", "config": {}}, "beta_constraint": null, "moving_variance_initializer": {"class_name": "Ones", "config": {}}, "moving_mean_initializer": {"class_name": "Zeros", "config": {}}}, "class_name": "BatchNormalization", "inbound_nodes": [[["block_6_expand", 0, 0, {}]]]}, {"name": "block_6_expand_relu", "config": {"name": "block_6_expand_relu", "max_value": 6.0, "threshold": 0.0, "trainable": true, "negative_slope": 0.0}, "class_name": "ReLU", "inbound_nodes": [[["block_6_expand_BN", 0, 0, {}]]]}, {"name": "block_6_pad", "config": {"name": "block_6_pad", "data_format": "channels_last", "trainable": true, "padding": [[0, 1], [0, 1]]}, "class_name": "ZeroPadding2D", "inbound_nodes": [[["block_6_expand_relu", 0, 0, {}]]]}, {"name": "block_6_depthwise", "config": {"depthwise_regularizer": null, "name": "block_6_depthwise", "kernel_size": [3, 3], "dilation_rate": [1, 1], "depthwise_initializer": {"class_name": "VarianceScaling", "config": {"scale": 1.0, "mode": "fan_avg", "distribution": "uniform", "seed": null}}, "depth_multiplier": 1, "bias_constraint": null, "trainable": true, "data_format": "channels_last", "depthwise_constraint": null, "use_bias": false, "strides": [2, 2], "padding": "valid", "activity_regularizer": null, "bias_initializer": {"class_name": "Zeros", "config": {}}, "activation": "linear", "bias_regularizer": null}, "class_name": "DepthwiseConv2D", "inbound_nodes": [[["block_6_pad", 0, 0, {}]]]}, {"name": "block_6_depthwise_BN", "config": {"beta_initializer": {"class_name": "Zeros", "config": {}}, "center": true, "momentum": 0.999, "trainable": true, "gamma_constraint": null, "beta_regularizer": null, "axis": -1, "scale": true, "gamma_regularizer": null, "epsilon": 0.001, "name": "block_6_depthwise_BN", "gamma_initializer": {"class_name": "Ones", "config": {}}, "beta_constraint": null, "moving_variance_initializer": {"class_name": "Ones", "config": {}}, "moving_mean_initializer": {"class_name": "Zeros", "config": {}}}, "class_name": "BatchNormalization", "inbound_nodes": [[["block_6_depthwise", 0, 0, {}]]]}, {"name": "block_6_depthwise_relu", "config": {"name": "block_6_depthwise_relu", "max_value": 6.0, "threshold": 0.0, "trainable": true, "negative_slope": 0.0}, "class_name": "ReLU", "inbound_nodes": [[["block_6_depthwise_BN", 0, 0, {}]]]}, {"name": "block_6_project", "config": {"kernel_constraint": null, "kernel_initializer": {"class_name": "VarianceScaling", "config": {"scale": 1.0, "mode": "fan_avg", "distribution": "uniform", "seed": null}}, "kernel_size": [1, 1], "dilation_rate": [1, 1], "padding": "same", "bias_constraint": null, "trainable": true, "data_format": "channels_last", "activity_regularizer": null, "use_bias": false, "strides": [1, 1], "filters": 64, "name": "block_6_project", "bias_initializer": {"class_name": "Zeros", "config": {}}, "kernel_regularizer": null, "activation": "linear", "bias_regularizer": null}, "class_name": "Conv2D", "inbound_nodes": [[["block_6_depthwise_relu", 0, 0, {}]]]}, {"name": "block_6_project_BN", "config": {"beta_initializer": {"class_name": "Zeros", "config": {}}, "center": true, "momentum": 0.999, "trainable": true, "gamma_constraint": null, "beta_regularizer": null, "axis": -1, "scale": true, "gamma_regularizer": null, "epsilon": 0.001, "name": "block_6_project_BN", "gamma_initializer": {"class_name": "Ones", "config": {}}, "beta_constraint": null, "moving_variance_initializer": {"class_name": "Ones", "config": {}}, "moving_mean_initializer": {"class_name": "Zeros", "config": {}}}, "class_name": "BatchNormalization", "inbound_nodes": [[["block_6_project", 0, 0, {}]]]}, {"name": "block_7_expand", "config": {"kernel_constraint": null, "kernel_initializer": {"class_name": "VarianceScaling", "config": {"scale": 1.0, "mode": "fan_avg", "distribution": "uniform", "seed": null}}, "kernel_size": [1, 1], "dilation_rate": [1, 1], "padding": "same", "bias_constraint": null, "trainable": true, "data_format": "channels_last", "activity_regularizer": null, "use_bias": false, "strides": [1, 1], "filters": 384, "name": "block_7_expand", "bias_initializer": {"class_name": "Zeros", "config": {}}, "kernel_regularizer": null, "activation": "linear", "bias_regularizer": null}, "class_name": "Conv2D", "inbound_nodes": [[["block_6_project_BN", 0, 0, {}]]]}, {"name": "block_7_expand_BN", "config": {"beta_initializer": {"class_name": "Zeros", "config": {}}, "center": true, "momentum": 0.999, "trainable": true, "gamma_constraint": null, "beta_regularizer": null, "axis": -1, "scale": true, "gamma_regularizer": null, "epsilon": 0.001, "name": "block_7_expand_BN", "gamma_initializer": {"class_name": "Ones", "config": {}}, "beta_constraint": null, "moving_variance_initializer": {"class_name": "Ones", "config": {}}, "moving_mean_initializer": {"class_name": "Zeros", "config": {}}}, "class_name": "BatchNormalization", "inbound_nodes": [[["block_7_expand", 0, 0, {}]]]}, {"name": "block_7_expand_relu", "config": {"name": "block_7_expand_relu", "max_value": 6.0, "threshold": 0.0, "trainable": true, "negative_slope": 0.0}, "class_name": "ReLU", "inbound_nodes": [[["block_7_expand_BN", 0, 0, {}]]]}, {"name": "block_7_depthwise", "config": {"depthwise_regularizer": null, "name": "block_7_depthwise", "kernel_size": [3, 3], "dilation_rate": [1, 1], "depthwise_initializer": {"class_name": "VarianceScaling", "config": {"scale": 1.0, "mode": "fan_avg", "distribution": "uniform", "seed": null}}, "depth_multiplier": 1, "bias_constraint": null, "trainable": true, "data_format": "channels_last", "depthwise_constraint": null, "use_bias": false, "strides": [1, 1], "padding": "same", "activity_regularizer": null, "bias_initializer": {"class_name": "Zeros", "config": {}}, "activation": "linear", "bias_regularizer": null}, "class_name": "DepthwiseConv2D", "inbound_nodes": [[["block_7_expand_relu", 0, 0, {}]]]}, {"name": "block_7_depthwise_BN", "config": {"beta_initializer": {"class_name": "Zeros", "config": {}}, "center": true, "momentum": 0.999, "trainable": true, "gamma_constraint": null, "beta_regularizer": null, "axis": -1, "scale": true, "gamma_regularizer": null, "epsilon": 0.001, "name": "block_7_depthwise_BN", "gamma_initializer": {"class_name": "Ones", "config": {}}, "beta_constraint": null, "moving_variance_initializer": {"class_name": "Ones", "config": {}}, "moving_mean_initializer": {"class_name": "Zeros", "config": {}}}, "class_name": "BatchNormalization", "inbound_nodes": [[["block_7_depthwise", 0, 0, {}]]]}, {"name": "block_7_depthwise_relu", "config": {"name": "block_7_depthwise_relu", "max_value": 6.0, "threshold": 0.0, "trainable": true, "negative_slope": 0.0}, "class_name": "ReLU", "inbound_nodes": [[["block_7_depthwise_BN", 0, 0, {}]]]}, {"name": "block_7_project", "config": {"kernel_constraint": null, "kernel_initializer": {"class_name": "VarianceScaling", "config": {"scale": 1.0, "mode": "fan_avg", "distribution": "uniform", "seed": null}}, "kernel_size": [1, 1], "dilation_rate": [1, 1], "padding": "same", "bias_constraint": null, "trainable": true, "data_format": "channels_last", "activity_regularizer": null, "use_bias": false, "strides": [1, 1], "filters": 64, "name": "block_7_project", "bias_initializer": {"class_name": "Zeros", "config": {}}, "kernel_regularizer": null, "activation": "linear", "bias_regularizer": null}, "class_name": "Conv2D", "inbound_nodes": [[["block_7_depthwise_relu", 0, 0, {}]]]}, {"name": "block_7_project_BN", "config": {"beta_initializer": {"class_name": "Zeros", "config": {}}, "center": true, "momentum": 0.999, "trainable": true, "gamma_constraint": null, "beta_regularizer": null, "axis": -1, "scale": true, "gamma_regularizer": null, "epsilon": 0.001, "name": "block_7_project_BN", "gamma_initializer": {"class_name": "Ones", "config": {}}, "beta_constraint": null, "moving_variance_initializer": {"class_name": "Ones", "config": {}}, "moving_mean_initializer": {"class_name": "Zeros", "config": {}}}, "class_name": "BatchNormalization", "inbound_nodes": [[["block_7_project", 0, 0, {}]]]}, {"name": "block_7_add", "config": {"name": "block_7_add", "trainable": true}, "class_name": "Add", "inbound_nodes": [[["block_6_project_BN", 0, 0, {}], ["block_7_project_BN", 0, 0, {}]]]}, {"name": "block_8_expand", "config": {"kernel_constraint": null, "kernel_initializer": {"class_name": "VarianceScaling", "config": {"scale": 1.0, "mode": "fan_avg", "distribution": "uniform", "seed": null}}, "kernel_size": [1, 1], "dilation_rate": [1, 1], "padding": "same", "bias_constraint": null, "trainable": true, "data_format": "channels_last", "activity_regularizer": null, "use_bias": false, "strides": [1, 1], "filters": 384, "name": "block_8_expand", "bias_initializer": {"class_name": "Zeros", "config": {}}, "kernel_regularizer": null, "activation": "linear", "bias_regularizer": null}, "class_name": "Conv2D", "inbound_nodes": [[["block_7_add", 0, 0, {}]]]}, {"name": "block_8_expand_BN", "config": {"beta_initializer": {"class_name": "Zeros", "config": {}}, "center": true, "momentum": 0.999, "trainable": true, "gamma_constraint": null, "beta_regularizer": null, "axis": -1, "scale": true, "gamma_regularizer": null, "epsilon": 0.001, "name": "block_8_expand_BN", "gamma_initializer": {"class_name": "Ones", "config": {}}, "beta_constraint": null, "moving_variance_initializer": {"class_name": "Ones", "config": {}}, "moving_mean_initializer": {"class_name": "Zeros", "config": {}}}, "class_name": "BatchNormalization", "inbound_nodes": [[["block_8_expand", 0, 0, {}]]]}, {"name": "block_8_expand_relu", "config": {"name": "block_8_expand_relu", "max_value": 6.0, "threshold": 0.0, "trainable": true, "negative_slope": 0.0}, "class_name": "ReLU", "inbound_nodes": [[["block_8_expand_BN", 0, 0, {}]]]}, {"name": "block_8_depthwise", "config": {"depthwise_regularizer": null, "name": "block_8_depthwise", "kernel_size": [3, 3], "dilation_rate": [1, 1], "depthwise_initializer": {"class_name": "VarianceScaling", "config": {"scale": 1.0, "mode": "fan_avg", "distribution": "uniform", "seed": null}}, "depth_multiplier": 1, "bias_constraint": null, "trainable": true, "data_format": "channels_last", "depthwise_constraint": null, "use_bias": false, "strides": [1, 1], "padding": "same", "activity_regularizer": null, "bias_initializer": {"class_name": "Zeros", "config": {}}, "activation": "linear", "bias_regularizer": null}, "class_name": "DepthwiseConv2D", "inbound_nodes": [[["block_8_expand_relu", 0, 0, {}]]]}, {"name": "block_8_depthwise_BN", "config": {"beta_initializer": {"class_name": "Zeros", "config": {}}, "center": true, "momentum": 0.999, "trainable": true, "gamma_constraint": null, "beta_regularizer": null, "axis": -1, "scale": true, "gamma_regularizer": null, "epsilon": 0.001, "name": "block_8_depthwise_BN", "gamma_initializer": {"class_name": "Ones", "config": {}}, "beta_constraint": null, "moving_variance_initializer": {"class_name": "Ones", "config": {}}, "moving_mean_initializer": {"class_name": "Zeros", "config": {}}}, "class_name": "BatchNormalization", "inbound_nodes": [[["block_8_depthwise", 0, 0, {}]]]}, {"name": "block_8_depthwise_relu", "config": {"name": "block_8_depthwise_relu", "max_value": 6.0, "threshold": 0.0, "trainable": true, "negative_slope": 0.0}, "class_name": "ReLU", "inbound_nodes": [[["block_8_depthwise_BN", 0, 0, {}]]]}, {"name": "block_8_project", "config": {"kernel_constraint": null, "kernel_initializer": {"class_name": "VarianceScaling", "config": {"scale": 1.0, "mode": "fan_avg", "distribution": "uniform", "seed": null}}, "kernel_size": [1, 1], "dilation_rate": [1, 1], "padding": "same", "bias_constraint": null, "trainable": true, "data_format": "channels_last", "activity_regularizer": null, "use_bias": false, "strides": [1, 1], "filters": 64, "name": "block_8_project", "bias_initializer": {"class_name": "Zeros", "config": {}}, "kernel_regularizer": null, "activation": "linear", "bias_regularizer": null}, "class_name": "Conv2D", "inbound_nodes": [[["block_8_depthwise_relu", 0, 0, {}]]]}, {"name": "block_8_project_BN", "config": {"beta_initializer": {"class_name": "Zeros", "config": {}}, "center": true, "momentum": 0.999, "trainable": true, "gamma_constraint": null, "beta_regularizer": null, "axis": -1, "scale": true, "gamma_regularizer": null, "epsilon": 0.001, "name": "block_8_project_BN", "gamma_initializer": {"class_name": "Ones", "config": {}}, "beta_constraint": null, "moving_variance_initializer": {"class_name": "Ones", "config": {}}, "moving_mean_initializer": {"class_name": "Zeros", "config": {}}}, "class_name": "BatchNormalization", "inbound_nodes": [[["block_8_project", 0, 0, {}]]]}, {"name": "block_8_add", "config": {"name": "block_8_add", "trainable": true}, "class_name": "Add", "inbound_nodes": [[["block_7_add", 0, 0, {}], ["block_8_project_BN", 0, 0, {}]]]}, {"name": "block_9_expand", "config": {"kernel_constraint": null, "kernel_initializer": {"class_name": "VarianceScaling", "config": {"scale": 1.0, "mode": "fan_avg", "distribution": "uniform", "seed": null}}, "kernel_size": [1, 1], "dilation_rate": [1, 1], "padding": "same", "bias_constraint": null, "trainable": true, "data_format": "channels_last", "activity_regularizer": null, "use_bias": false, "strides": [1, 1], "filters": 384, "name": "block_9_expand", "bias_initializer": {"class_name": "Zeros", "config": {}}, "kernel_regularizer": null, "activation": "linear", "bias_regularizer": null}, "class_name": "Conv2D", "inbound_nodes": [[["block_8_add", 0, 0, {}]]]}, {"name": "block_9_expand_BN", "config": {"beta_initializer": {"class_name": "Zeros", "config": {}}, "center": true, "momentum": 0.999, "trainable": true, "gamma_constraint": null, "beta_regularizer": null, "axis": -1, "scale": true, "gamma_regularizer": null, "epsilon": 0.001, "name": "block_9_expand_BN", "gamma_initializer": {"class_name": "Ones", "config": {}}, "beta_constraint": null, "moving_variance_initializer": {"class_name": "Ones", "config": {}}, "moving_mean_initializer": {"class_name": "Zeros", "config": {}}}, "class_name": "BatchNormalization", "inbound_nodes": [[["block_9_expand", 0, 0, {}]]]}, {"name": "block_9_expand_relu", "config": {"name": "block_9_expand_relu", "max_value": 6.0, "threshold": 0.0, "trainable": true, "negative_slope": 0.0}, "class_name": "ReLU", "inbound_nodes": [[["block_9_expand_BN", 0, 0, {}]]]}, {"name": "block_9_depthwise", "config": {"depthwise_regularizer": null, "name": "block_9_depthwise", "kernel_size": [3, 3], "dilation_rate": [1, 1], "depthwise_initializer": {"class_name": "VarianceScaling", "config": {"scale": 1.0, "mode": "fan_avg", "distribution": "uniform", "seed": null}}, "depth_multiplier": 1, "bias_constraint": null, "trainable": true, "data_format": "channels_last", "depthwise_constraint": null, "use_bias": false, "strides": [1, 1], "padding": "same", "activity_regularizer": null, "bias_initializer": {"class_name": "Zeros", "config": {}}, "activation": "linear", "bias_regularizer": null}, "class_name": "DepthwiseConv2D", "inbound_nodes": [[["block_9_expand_relu", 0, 0, {}]]]}, {"name": "block_9_depthwise_BN", "config": {"beta_initializer": {"class_name": "Zeros", "config": {}}, "center": true, "momentum": 0.999, "trainable": true, "gamma_constraint": null, "beta_regularizer": null, "axis": -1, "scale": true, "gamma_regularizer": null, "epsilon": 0.001, "name": "block_9_depthwise_BN", "gamma_initializer": {"class_name": "Ones", "config": {}}, "beta_constraint": null, "moving_variance_initializer": {"class_name": "Ones", "config": {}}, "moving_mean_initializer": {"class_name": "Zeros", "config": {}}}, "class_name": "BatchNormalization", "inbound_nodes": [[["block_9_depthwise", 0, 0, {}]]]}, {"name": "block_9_depthwise_relu", "config": {"name": "block_9_depthwise_relu", "max_value": 6.0, "threshold": 0.0, "trainable": true, "negative_slope": 0.0}, "class_name": "ReLU", "inbound_nodes": [[["block_9_depthwise_BN", 0, 0, {}]]]}, {"name": "block_9_project", "config": {"kernel_constraint": null, "kernel_initializer": {"class_name": "VarianceScaling", "config": {"scale": 1.0, "mode": "fan_avg", "distribution": "uniform", "seed": null}}, "kernel_size": [1, 1], "dilation_rate": [1, 1], "padding": "same", "bias_constraint": null, "trainable": true, "data_format": "channels_last", "activity_regularizer": null, "use_bias": false, "strides": [1, 1], "filters": 64, "name": "block_9_project", "bias_initializer": {"class_name": "Zeros", "config": {}}, "kernel_regularizer": null, "activation": "linear", "bias_regularizer": null}, "class_name": "Conv2D", "inbound_nodes": [[["block_9_depthwise_relu", 0, 0, {}]]]}, {"name": "block_9_project_BN", "config": {"beta_initializer": {"class_name": "Zeros", "config": {}}, "center": true, "momentum": 0.999, "trainable": true, "gamma_constraint": null, "beta_regularizer": null, "axis": -1, "scale": true, "gamma_regularizer": null, "epsilon": 0.001, "name": "block_9_project_BN", "gamma_initializer": {"class_name": "Ones", "config": {}}, "beta_constraint": null, "moving_variance_initializer": {"class_name": "Ones", "config": {}}, "moving_mean_initializer": {"class_name": "Zeros", "config": {}}}, "class_name": "BatchNormalization", "inbound_nodes": [[["block_9_project", 0, 0, {}]]]}, {"name": "block_9_add", "config": {"name": "block_9_add", "trainable": true}, "class_name": "Add", "inbound_nodes": [[["block_8_add", 0, 0, {}], ["block_9_project_BN", 0, 0, {}]]]}, {"name": "block_10_expand", "config": {"kernel_constraint": null, "kernel_initializer": {"class_name": "VarianceScaling", "config": {"scale": 1.0, "mode": "fan_avg", "distribution": "uniform", "seed": null}}, "kernel_size": [1, 1], "dilation_rate": [1, 1], "padding": "same", "bias_constraint": null, "trainable": true, "data_format": "channels_last", "activity_regularizer": null, "use_bias": false, "strides": [1, 1], "filters": 384, "name": "block_10_expand", "bias_initializer": {"class_name": "Zeros", "config": {}}, "kernel_regularizer": null, "activation": "linear", "bias_regularizer": null}, "class_name": "Conv2D", "inbound_nodes": [[["block_9_add", 0, 0, {}]]]}, {"name": "block_10_expand_BN", "config": {"beta_initializer": {"class_name": "Zeros", "config": {}}, "center": true, "momentum": 0.999, "trainable": true, "gamma_constraint": null, "beta_regularizer": null, "axis": -1, "scale": true, "gamma_regularizer": null, "epsilon": 0.001, "name": "block_10_expand_BN", "gamma_initializer": {"class_name": "Ones", "config": {}}, "beta_constraint": null, "moving_variance_initializer": {"class_name": "Ones", "config": {}}, "moving_mean_initializer": {"class_name": "Zeros", "config": {}}}, "class_name": "BatchNormalization", "inbound_nodes": [[["block_10_expand", 0, 0, {}]]]}, {"name": "block_10_expand_relu", "config": {"name": "block_10_expand_relu", "max_value": 6.0, "threshold": 0.0, "trainable": true, "negative_slope": 0.0}, "class_name": "ReLU", "inbound_nodes": [[["block_10_expand_BN", 0, 0, {}]]]}, {"name": "block_10_depthwise", "config": {"depthwise_regularizer": null, "name": "block_10_depthwise", "kernel_size": [3, 3], "dilation_rate": [1, 1], "depthwise_initializer": {"class_name": "VarianceScaling", "config": {"scale": 1.0, "mode": "fan_avg", "distribution": "uniform", "seed": null}}, "depth_multiplier": 1, "bias_constraint": null, "trainable": true, "data_format": "channels_last", "depthwise_constraint": null, "use_bias": false, "strides": [1, 1], "padding": "same", "activity_regularizer": null, "bias_initializer": {"class_name": "Zeros", "config": {}}, "activation": "linear", "bias_regularizer": null}, "class_name": "DepthwiseConv2D", "inbound_nodes": [[["block_10_expand_relu", 0, 0, {}]]]}, {"name": "block_10_depthwise_BN", "config": {"beta_initializer": {"class_name": "Zeros", "config": {}}, "center": true, "momentum": 0.999, "trainable": true, "gamma_constraint": null, "beta_regularizer": null, "axis": -1, "scale": true, "gamma_regularizer": null, "epsilon": 0.001, "name": "block_10_depthwise_BN", "gamma_initializer": {"class_name": "Ones", "config": {}}, "beta_constraint": null, "moving_variance_initializer": {"class_name": "Ones", "config": {}}, "moving_mean_initializer": {"class_name": "Zeros", "config": {}}}, "class_name": "BatchNormalization", "inbound_nodes": [[["block_10_depthwise", 0, 0, {}]]]}, {"name": "block_10_depthwise_relu", "config": {"name": "block_10_depthwise_relu", "max_value": 6.0, "threshold": 0.0, "trainable": true, "negative_slope": 0.0}, "class_name": "ReLU", "inbound_nodes": [[["block_10_depthwise_BN", 0, 0, {}]]]}, {"name": "block_10_project", "config": {"kernel_constraint": null, "kernel_initializer": {"class_name": "VarianceScaling", "config": {"scale": 1.0, "mode": "fan_avg", "distribution": "uniform", "seed": null}}, "kernel_size": [1, 1], "dilation_rate": [1, 1], "padding": "same", "bias_constraint": null, "trainable": true, "data_format": "channels_last", "activity_regularizer": null, "use_bias": false, "strides": [1, 1], "filters": 96, "name": "block_10_project", "bias_initializer": {"class_name": "Zeros", "config": {}}, "kernel_regularizer": null, "activation": "linear", "bias_regularizer": null}, "class_name": "Conv2D", "inbound_nodes": [[["block_10_depthwise_relu", 0, 0, {}]]]}, {"name": "block_10_project_BN", "config": {"beta_initializer": {"class_name": "Zeros", "config": {}}, "center": true, "momentum": 0.999, "trainable": true, "gamma_constraint": null, "beta_regularizer": null, "axis": -1, "scale": true, "gamma_regularizer": null, "epsilon": 0.001, "name": "block_10_project_BN", "gamma_initializer": {"class_name": "Ones", "config": {}}, "beta_constraint": null, "moving_variance_initializer": {"class_name": "Ones", "config": {}}, "moving_mean_initializer": {"class_name": "Zeros", "config": {}}}, "class_name": "BatchNormalization", "inbound_nodes": [[["block_10_project", 0, 0, {}]]]}, {"name": "block_11_expand", "config": {"kernel_constraint": null, "kernel_initializer": {"class_name": "VarianceScaling", "config": {"scale": 1.0, "mode": "fan_avg", "distribution": "uniform", "seed": null}}, "kernel_size": [1, 1], "dilation_rate": [1, 1], "padding": "same", "bias_constraint": null, "trainable": true, "data_format": "channels_last", "activity_regularizer": null, "use_bias": false, "strides": [1, 1], "filters": 576, "name": "block_11_expand", "bias_initializer": {"class_name": "Zeros", "config": {}}, "kernel_regularizer": null, "activation": "linear", "bias_regularizer": null}, "class_name": "Conv2D", "inbound_nodes": [[["block_10_project_BN", 0, 0, {}]]]}, {"name": "block_11_expand_BN", "config": {"beta_initializer": {"class_name": "Zeros", "config": {}}, "center": true, "momentum": 0.999, "trainable": true, "gamma_constraint": null, "beta_regularizer": null, "axis": -1, "scale": true, "gamma_regularizer": null, "epsilon": 0.001, "name": "block_11_expand_BN", "gamma_initializer": {"class_name": "Ones", "config": {}}, "beta_constraint": null, "moving_variance_initializer": {"class_name": "Ones", "config": {}}, "moving_mean_initializer": {"class_name": "Zeros", "config": {}}}, "class_name": "BatchNormalization", "inbound_nodes": [[["block_11_expand", 0, 0, {}]]]}, {"name": "block_11_expand_relu", "config": {"name": "block_11_expand_relu", "max_value": 6.0, "threshold": 0.0, "trainable": true, "negative_slope": 0.0}, "class_name": "ReLU", "inbound_nodes": [[["block_11_expand_BN", 0, 0, {}]]]}, {"name": "block_11_depthwise", "config": {"depthwise_regularizer": null, "name": "block_11_depthwise", "kernel_size": [3, 3], "dilation_rate": [1, 1], "depthwise_initializer": {"class_name": "VarianceScaling", "config": {"scale": 1.0, "mode": "fan_avg", "distribution": "uniform", "seed": null}}, "depth_multiplier": 1, "bias_constraint": null, "trainable": true, "data_format": "channels_last", "depthwise_constraint": null, "use_bias": false, "strides": [1, 1], "padding": "same", "activity_regularizer": null, "bias_initializer": {"class_name": "Zeros", "config": {}}, "activation": "linear", "bias_regularizer": null}, "class_name": "DepthwiseConv2D", "inbound_nodes": [[["block_11_expand_relu", 0, 0, {}]]]}, {"name": "block_11_depthwise_BN", "config": {"beta_initializer": {"class_name": "Zeros", "config": {}}, "center": true, "momentum": 0.999, "trainable": true, "gamma_constraint": null, "beta_regularizer": null, "axis": -1, "scale": true, "gamma_regularizer": null, "epsilon": 0.001, "name": "block_11_depthwise_BN", "gamma_initializer": {"class_name": "Ones", "config": {}}, "beta_constraint": null, "moving_variance_initializer": {"class_name": "Ones", "config": {}}, "moving_mean_initializer": {"class_name": "Zeros", "config": {}}}, "class_name": "BatchNormalization", "inbound_nodes": [[["block_11_depthwise", 0, 0, {}]]]}, {"name": "block_11_depthwise_relu", "config": {"name": "block_11_depthwise_relu", "max_value": 6.0, "threshold": 0.0, "trainable": true, "negative_slope": 0.0}, "class_name": "ReLU", "inbound_nodes": [[["block_11_depthwise_BN", 0, 0, {}]]]}, {"name": "block_11_project", "config": {"kernel_constraint": null, "kernel_initializer": {"class_name": "VarianceScaling", "config": {"scale": 1.0, "mode": "fan_avg", "distribution": "uniform", "seed": null}}, "kernel_size": [1, 1], "dilation_rate": [1, 1], "padding": "same", "bias_constraint": null, "trainable": true, "data_format": "channels_last", "activity_regularizer": null, "use_bias": false, "strides": [1, 1], "filters": 96, "name": "block_11_project", "bias_initializer": {"class_name": "Zeros", "config": {}}, "kernel_regularizer": null, "activation": "linear", "bias_regularizer": null}, "class_name": "Conv2D", "inbound_nodes": [[["block_11_depthwise_relu", 0, 0, {}]]]}, {"name": "block_11_project_BN", "config": {"beta_initializer": {"class_name": "Zeros", "config": {}}, "center": true, "momentum": 0.999, "trainable": true, "gamma_constraint": null, "beta_regularizer": null, "axis": -1, "scale": true, "gamma_regularizer": null, "epsilon": 0.001, "name": "block_11_project_BN", "gamma_initializer": {"class_name": "Ones", "config": {}}, "beta_constraint": null, "moving_variance_initializer": {"class_name": "Ones", "config": {}}, "moving_mean_initializer": {"class_name": "Zeros", "config": {}}}, "class_name": "BatchNormalization", "inbound_nodes": [[["block_11_project", 0, 0, {}]]]}, {"name": "block_11_add", "config": {"name": "block_11_add", "trainable": true}, "class_name": "Add", "inbound_nodes": [[["block_10_project_BN", 0, 0, {}], ["block_11_project_BN", 0, 0, {}]]]}, {"name": "block_12_expand", "config": {"kernel_constraint": null, "kernel_initializer": {"class_name": "VarianceScaling", "config": {"scale": 1.0, "mode": "fan_avg", "distribution": "uniform", "seed": null}}, "kernel_size": [1, 1], "dilation_rate": [1, 1], "padding": "same", "bias_constraint": null, "trainable": true, "data_format": "channels_last", "activity_regularizer": null, "use_bias": false, "strides": [1, 1], "filters": 576, "name": "block_12_expand", "bias_initializer": {"class_name": "Zeros", "config": {}}, "kernel_regularizer": null, "activation": "linear", "bias_regularizer": null}, "class_name": "Conv2D", "inbound_nodes": [[["block_11_add", 0, 0, {}]]]}, {"name": "block_12_expand_BN", "config": {"beta_initializer": {"class_name": "Zeros", "config": {}}, "center": true, "momentum": 0.999, "trainable": true, "gamma_constraint": null, "beta_regularizer": null, "axis": -1, "scale": true, "gamma_regularizer": null, "epsilon": 0.001, "name": "block_12_expand_BN", "gamma_initializer": {"class_name": "Ones", "config": {}}, "beta_constraint": null, "moving_variance_initializer": {"class_name": "Ones", "config": {}}, "moving_mean_initializer": {"class_name": "Zeros", "config": {}}}, "class_name": "BatchNormalization", "inbound_nodes": [[["block_12_expand", 0, 0, {}]]]}, {"name": "block_12_expand_relu", "config": {"name": "block_12_expand_relu", "max_value": 6.0, "threshold": 0.0, "trainable": true, "negative_slope": 0.0}, "class_name": "ReLU", "inbound_nodes": [[["block_12_expand_BN", 0, 0, {}]]]}, {"name": "block_12_depthwise", "config": {"depthwise_regularizer": null, "name": "block_12_depthwise", "kernel_size": [3, 3], "dilation_rate": [1, 1], "depthwise_initializer": {"class_name": "VarianceScaling", "config": {"scale": 1.0, "mode": "fan_avg", "distribution": "uniform", "seed": null}}, "depth_multiplier": 1, "bias_constraint": null, "trainable": true, "data_format": "channels_last", "depthwise_constraint": null, "use_bias": false, "strides": [1, 1], "padding": "same", "activity_regularizer": null, "bias_initializer": {"class_name": "Zeros", "config": {}}, "activation": "linear", "bias_regularizer": null}, "class_name": "DepthwiseConv2D", "inbound_nodes": [[["block_12_expand_relu", 0, 0, {}]]]}, {"name": "block_12_depthwise_BN", "config": {"beta_initializer": {"class_name": "Zeros", "config": {}}, "center": true, "momentum": 0.999, "trainable": true, "gamma_constraint": null, "beta_regularizer": null, "axis": -1, "scale": true, "gamma_regularizer": null, "epsilon": 0.001, "name": "block_12_depthwise_BN", "gamma_initializer": {"class_name": "Ones", "config": {}}, "beta_constraint": null, "moving_variance_initializer": {"class_name": "Ones", "config": {}}, "moving_mean_initializer": {"class_name": "Zeros", "config": {}}}, "class_name": "BatchNormalization", "inbound_nodes": [[["block_12_depthwise", 0, 0, {}]]]}, {"name": "block_12_depthwise_relu", "config": {"name": "block_12_depthwise_relu", "max_value": 6.0, "threshold": 0.0, "trainable": true, "negative_slope": 0.0}, "class_name": "ReLU", "inbound_nodes": [[["block_12_depthwise_BN", 0, 0, {}]]]}, {"name": "block_12_project", "config": {"kernel_constraint": null, "kernel_initializer": {"class_name": "VarianceScaling", "config": {"scale": 1.0, "mode": "fan_avg", "distribution": "uniform", "seed": null}}, "kernel_size": [1, 1], "dilation_rate": [1, 1], "padding": "same", "bias_constraint": null, "trainable": true, "data_format": "channels_last", "activity_regularizer": null, "use_bias": false, "strides": [1, 1], "filters": 96, "name": "block_12_project", "bias_initializer": {"class_name": "Zeros", "config": {}}, "kernel_regularizer": null, "activation": "linear", "bias_regularizer": null}, "class_name": "Conv2D", "inbound_nodes": [[["block_12_depthwise_relu", 0, 0, {}]]]}, {"name": "block_12_project_BN", "config": {"beta_initializer": {"class_name": "Zeros", "config": {}}, "center": true, "momentum": 0.999, "trainable": true, "gamma_constraint": null, "beta_regularizer": null, "axis": -1, "scale": true, "gamma_regularizer": null, "epsilon": 0.001, "name": "block_12_project_BN", "gamma_initializer": {"class_name": "Ones", "config": {}}, "beta_constraint": null, "moving_variance_initializer": {"class_name": "Ones", "config": {}}, "moving_mean_initializer": {"class_name": "Zeros", "config": {}}}, "class_name": "BatchNormalization", "inbound_nodes": [[["block_12_project", 0, 0, {}]]]}, {"name": "block_12_add", "config": {"name": "block_12_add", "trainable": true}, "class_name": "Add", "inbound_nodes": [[["block_11_add", 0, 0, {}], ["block_12_project_BN", 0, 0, {}]]]}, {"name": "block_13_expand", "config": {"kernel_constraint": null, "kernel_initializer": {"class_name": "VarianceScaling", "config": {"scale": 1.0, "mode": "fan_avg", "distribution": "uniform", "seed": null}}, "kernel_size": [1, 1], "dilation_rate": [1, 1], "padding": "same", "bias_constraint": null, "trainable": true, "data_format": "channels_last", "activity_regularizer": null, "use_bias": false, "strides": [1, 1], "filters": 576, "name": "block_13_expand", "bias_initializer": {"class_name": "Zeros", "config": {}}, "kernel_regularizer": null, "activation": "linear", "bias_regularizer": null}, "class_name": "Conv2D", "inbound_nodes": [[["block_12_add", 0, 0, {}]]]}, {"name": "block_13_expand_BN", "config": {"beta_initializer": {"class_name": "Zeros", "config": {}}, "center": true, "momentum": 0.999, "trainable": true, "gamma_constraint": null, "beta_regularizer": null, "axis": -1, "scale": true, "gamma_regularizer": null, "epsilon": 0.001, "name": "block_13_expand_BN", "gamma_initializer": {"class_name": "Ones", "config": {}}, "beta_constraint": null, "moving_variance_initializer": {"class_name": "Ones", "config": {}}, "moving_mean_initializer": {"class_name": "Zeros", "config": {}}}, "class_name": "BatchNormalization", "inbound_nodes": [[["block_13_expand", 0, 0, {}]]]}, {"name": "block_13_expand_relu", "config": {"name": "block_13_expand_relu", "max_value": 6.0, "threshold": 0.0, "trainable": true, "negative_slope": 0.0}, "class_name": "ReLU", "inbound_nodes": [[["block_13_expand_BN", 0, 0, {}]]]}, {"name": "block_13_pad", "config": {"name": "block_13_pad", "data_format": "channels_last", "trainable": true, "padding": [[0, 1], [0, 1]]}, "class_name": "ZeroPadding2D", "inbound_nodes": [[["block_13_expand_relu", 0, 0, {}]]]}, {"name": "block_13_depthwise", "config": {"depthwise_regularizer": null, "name": "block_13_depthwise", "kernel_size": [3, 3], "dilation_rate": [1, 1], "depthwise_initializer": {"class_name": "VarianceScaling", "config": {"scale": 1.0, "mode": "fan_avg", "distribution": "uniform", "seed": null}}, "depth_multiplier": 1, "bias_constraint": null, "trainable": true, "data_format": "channels_last", "depthwise_constraint": null, "use_bias": false, "strides": [2, 2], "padding": "valid", "activity_regularizer": null, "bias_initializer": {"class_name": "Zeros", "config": {}}, "activation": "linear", "bias_regularizer": null}, "class_name": "DepthwiseConv2D", "inbound_nodes": [[["block_13_pad", 0, 0, {}]]]}, {"name": "block_13_depthwise_BN", "config": {"beta_initializer": {"class_name": "Zeros", "config": {}}, "center": true, "momentum": 0.999, "trainable": true, "gamma_constraint": null, "beta_regularizer": null, "axis": -1, "scale": true, "gamma_regularizer": null, "epsilon": 0.001, "name": "block_13_depthwise_BN", "gamma_initializer": {"class_name": "Ones", "config": {}}, "beta_constraint": null, "moving_variance_initializer": {"class_name": "Ones", "config": {}}, "moving_mean_initializer": {"class_name": "Zeros", "config": {}}}, "class_name": "BatchNormalization", "inbound_nodes": [[["block_13_depthwise", 0, 0, {}]]]}, {"name": "block_13_depthwise_relu", "config": {"name": "block_13_depthwise_relu", "max_value": 6.0, "threshold": 0.0, "trainable": true, "negative_slope": 0.0}, "class_name": "ReLU", "inbound_nodes": [[["block_13_depthwise_BN", 0, 0, {}]]]}, {"name": "block_13_project", "config": {"kernel_constraint": null, "kernel_initializer": {"class_name": "VarianceScaling", "config": {"scale": 1.0, "mode": "fan_avg", "distribution": "uniform", "seed": null}}, "kernel_size": [1, 1], "dilation_rate": [1, 1], "padding": "same", "bias_constraint": null, "trainable": true, "data_format": "channels_last", "activity_regularizer": null, "use_bias": false, "strides": [1, 1], "filters": 160, "name": "block_13_project", "bias_initializer": {"class_name": "Zeros", "config": {}}, "kernel_regularizer": null, "activation": "linear", "bias_regularizer": null}, "class_name": "Conv2D", "inbound_nodes": [[["block_13_depthwise_relu", 0, 0, {}]]]}, {"name": "block_13_project_BN", "config": {"beta_initializer": {"class_name": "Zeros", "config": {}}, "center": true, "momentum": 0.999, "trainable": true, "gamma_constraint": null, "beta_regularizer": null, "axis": -1, "scale": true, "gamma_regularizer": null, "epsilon": 0.001, "name": "block_13_project_BN", "gamma_initializer": {"class_name": "Ones", "config": {}}, "beta_constraint": null, "moving_variance_initializer": {"class_name": "Ones", "config": {}}, "moving_mean_initializer": {"class_name": "Zeros", "config": {}}}, "class_name": "BatchNormalization", "inbound_nodes": [[["block_13_project", 0, 0, {}]]]}, {"name": "block_14_expand", "config": {"kernel_constraint": null, "kernel_initializer": {"class_name": "VarianceScaling", "config": {"scale": 1.0, "mode": "fan_avg", "distribution": "uniform", "seed": null}}, "kernel_size": [1, 1], "dilation_rate": [1, 1], "padding": "same", "bias_constraint": null, "trainable": true, "data_format": "channels_last", "activity_regularizer": null, "use_bias": false, "strides": [1, 1], "filters": 960, "name": "block_14_expand", "bias_initializer": {"class_name": "Zeros", "config": {}}, "kernel_regularizer": null, "activation": "linear", "bias_regularizer": null}, "class_name": "Conv2D", "inbound_nodes": [[["block_13_project_BN", 0, 0, {}]]]}, {"name": "block_14_expand_BN", "config": {"beta_initializer": {"class_name": "Zeros", "config": {}}, "center": true, "momentum": 0.999, "trainable": true, "gamma_constraint": null, "beta_regularizer": null, "axis": -1, "scale": true, "gamma_regularizer": null, "epsilon": 0.001, "name": "block_14_expand_BN", "gamma_initializer": {"class_name": "Ones", "config": {}}, "beta_constraint": null, "moving_variance_initializer": {"class_name": "Ones", "config": {}}, "moving_mean_initializer": {"class_name": "Zeros", "config": {}}}, "class_name": "BatchNormalization", "inbound_nodes": [[["block_14_expand", 0, 0, {}]]]}, {"name": "block_14_expand_relu", "config": {"name": "block_14_expand_relu", "max_value": 6.0, "threshold": 0.0, "trainable": true, "negative_slope": 0.0}, "class_name": "ReLU", "inbound_nodes": [[["block_14_expand_BN", 0, 0, {}]]]}, {"name": "block_14_depthwise", "config": {"depthwise_regularizer": null, "name": "block_14_depthwise", "kernel_size": [3, 3], "dilation_rate": [1, 1], "depthwise_initializer": {"class_name": "VarianceScaling", "config": {"scale": 1.0, "mode": "fan_avg", "distribution": "uniform", "seed": null}}, "depth_multiplier": 1, "bias_constraint": null, "trainable": true, "data_format": "channels_last", "depthwise_constraint": null, "use_bias": false, "strides": [1, 1], "padding": "same", "activity_regularizer": null, "bias_initializer": {"class_name": "Zeros", "config": {}}, "activation": "linear", "bias_regularizer": null}, "class_name": "DepthwiseConv2D", "inbound_nodes": [[["block_14_expand_relu", 0, 0, {}]]]}, {"name": "block_14_depthwise_BN", "config": {"beta_initializer": {"class_name": "Zeros", "config": {}}, "center": true, "momentum": 0.999, "trainable": true, "gamma_constraint": null, "beta_regularizer": null, "axis": -1, "scale": true, "gamma_regularizer": null, "epsilon": 0.001, "name": "block_14_depthwise_BN", "gamma_initializer": {"class_name": "Ones", "config": {}}, "beta_constraint": null, "moving_variance_initializer": {"class_name": "Ones", "config": {}}, "moving_mean_initializer": {"class_name": "Zeros", "config": {}}}, "class_name": "BatchNormalization", "inbound_nodes": [[["block_14_depthwise", 0, 0, {}]]]}, {"name": "block_14_depthwise_relu", "config": {"name": "block_14_depthwise_relu", "max_value": 6.0, "threshold": 0.0, "trainable": true, "negative_slope": 0.0}, "class_name": "ReLU", "inbound_nodes": [[["block_14_depthwise_BN", 0, 0, {}]]]}, {"name": "block_14_project", "config": {"kernel_constraint": null, "kernel_initializer": {"class_name": "VarianceScaling", "config": {"scale": 1.0, "mode": "fan_avg", "distribution": "uniform", "seed": null}}, "kernel_size": [1, 1], "dilation_rate": [1, 1], "padding": "same", "bias_constraint": null, "trainable": true, "data_format": "channels_last", "activity_regularizer": null, "use_bias": false, "strides": [1, 1], "filters": 160, "name": "block_14_project", "bias_initializer": {"class_name": "Zeros", "config": {}}, "kernel_regularizer": null, "activation": "linear", "bias_regularizer": null}, "class_name": "Conv2D", "inbound_nodes": [[["block_14_depthwise_relu", 0, 0, {}]]]}, {"name": "block_14_project_BN", "config": {"beta_initializer": {"class_name": "Zeros", "config": {}}, "center": true, "momentum": 0.999, "trainable": true, "gamma_constraint": null, "beta_regularizer": null, "axis": -1, "scale": true, "gamma_regularizer": null, "epsilon": 0.001, "name": "block_14_project_BN", "gamma_initializer": {"class_name": "Ones", "config": {}}, "beta_constraint": null, "moving_variance_initializer": {"class_name": "Ones", "config": {}}, "moving_mean_initializer": {"class_name": "Zeros", "config": {}}}, "class_name": "BatchNormalization", "inbound_nodes": [[["block_14_project", 0, 0, {}]]]}, {"name": "block_14_add", "config": {"name": "block_14_add", "trainable": true}, "class_name": "Add", "inbound_nodes": [[["block_13_project_BN", 0, 0, {}], ["block_14_project_BN", 0, 0, {}]]]}, {"name": "block_15_expand", "config": {"kernel_constraint": null, "kernel_initializer": {"class_name": "VarianceScaling", "config": {"scale": 1.0, "mode": "fan_avg", "distribution": "uniform", "seed": null}}, "kernel_size": [1, 1], "dilation_rate": [1, 1], "padding": "same", "bias_constraint": null, "trainable": true, "data_format": "channels_last", "activity_regularizer": null, "use_bias": false, "strides": [1, 1], "filters": 960, "name": "block_15_expand", "bias_initializer": {"class_name": "Zeros", "config": {}}, "kernel_regularizer": null, "activation": "linear", "bias_regularizer": null}, "class_name": "Conv2D", "inbound_nodes": [[["block_14_add", 0, 0, {}]]]}, {"name": "block_15_expand_BN", "config": {"beta_initializer": {"class_name": "Zeros", "config": {}}, "center": true, "momentum": 0.999, "trainable": true, "gamma_constraint": null, "beta_regularizer": null, "axis": -1, "scale": true, "gamma_regularizer": null, "epsilon": 0.001, "name": "block_15_expand_BN", "gamma_initializer": {"class_name": "Ones", "config": {}}, "beta_constraint": null, "moving_variance_initializer": {"class_name": "Ones", "config": {}}, "moving_mean_initializer": {"class_name": "Zeros", "config": {}}}, "class_name": "BatchNormalization", "inbound_nodes": [[["block_15_expand", 0, 0, {}]]]}, {"name": "block_15_expand_relu", "config": {"name": "block_15_expand_relu", "max_value": 6.0, "threshold": 0.0, "trainable": true, "negative_slope": 0.0}, "class_name": "ReLU", "inbound_nodes": [[["block_15_expand_BN", 0, 0, {}]]]}, {"name": "block_15_depthwise", "config": {"depthwise_regularizer": null, "name": "block_15_depthwise", "kernel_size": [3, 3], "dilation_rate": [1, 1], "depthwise_initializer": {"class_name": "VarianceScaling", "config": {"scale": 1.0, "mode": "fan_avg", "distribution": "uniform", "seed": null}}, "depth_multiplier": 1, "bias_constraint": null, "trainable": true, "data_format": "channels_last", "depthwise_constraint": null, "use_bias": false, "strides": [1, 1], "padding": "same", "activity_regularizer": null, "bias_initializer": {"class_name": "Zeros", "config": {}}, "activation": "linear", "bias_regularizer": null}, "class_name": "DepthwiseConv2D", "inbound_nodes": [[["block_15_expand_relu", 0, 0, {}]]]}, {"name": "block_15_depthwise_BN", "config": {"beta_initializer": {"class_name": "Zeros", "config": {}}, "center": true, "momentum": 0.999, "trainable": true, "gamma_constraint": null, "beta_regularizer": null, "axis": -1, "scale": true, "gamma_regularizer": null, "epsilon": 0.001, "name": "block_15_depthwise_BN", "gamma_initializer": {"class_name": "Ones", "config": {}}, "beta_constraint": null, "moving_variance_initializer": {"class_name": "Ones", "config": {}}, "moving_mean_initializer": {"class_name": "Zeros", "config": {}}}, "class_name": "BatchNormalization", "inbound_nodes": [[["block_15_depthwise", 0, 0, {}]]]}, {"name": "block_15_depthwise_relu", "config": {"name": "block_15_depthwise_relu", "max_value": 6.0, "threshold": 0.0, "trainable": true, "negative_slope": 0.0}, "class_name": "ReLU", "inbound_nodes": [[["block_15_depthwise_BN", 0, 0, {}]]]}, {"name": "block_15_project", "config": {"kernel_constraint": null, "kernel_initializer": {"class_name": "VarianceScaling", "config": {"scale": 1.0, "mode": "fan_avg", "distribution": "uniform", "seed": null}}, "kernel_size": [1, 1], "dilation_rate": [1, 1], "padding": "same", "bias_constraint": null, "trainable": true, "data_format": "channels_last", "activity_regularizer": null, "use_bias": false, "strides": [1, 1], "filters": 160, "name": "block_15_project", "bias_initializer": {"class_name": "Zeros", "config": {}}, "kernel_regularizer": null, "activation": "linear", "bias_regularizer": null}, "class_name": "Conv2D", "inbound_nodes": [[["block_15_depthwise_relu", 0, 0, {}]]]}, {"name": "block_15_project_BN", "config": {"beta_initializer": {"class_name": "Zeros", "config": {}}, "center": true, "momentum": 0.999, "trainable": true, "gamma_constraint": null, "beta_regularizer": null, "axis": -1, "scale": true, "gamma_regularizer": null, "epsilon": 0.001, "name": "block_15_project_BN", "gamma_initializer": {"class_name": "Ones", "config": {}}, "beta_constraint": null, "moving_variance_initializer": {"class_name": "Ones", "config": {}}, "moving_mean_initializer": {"class_name": "Zeros", "config": {}}}, "class_name": "BatchNormalization", "inbound_nodes": [[["block_15_project", 0, 0, {}]]]}, {"name": "block_15_add", "config": {"name": "block_15_add", "trainable": true}, "class_name": "Add", "inbound_nodes": [[["block_14_add", 0, 0, {}], ["block_15_project_BN", 0, 0, {}]]]}, {"name": "block_16_expand", "config": {"kernel_constraint": null, "kernel_initializer": {"class_name": "VarianceScaling", "config": {"scale": 1.0, "mode": "fan_avg", "distribution": "uniform", "seed": null}}, "kernel_size": [1, 1], "dilation_rate": [1, 1], "padding": "same", "bias_constraint": null, "trainable": true, "data_format": "channels_last", "activity_regularizer": null, "use_bias": false, "strides": [1, 1], "filters": 960, "name": "block_16_expand", "bias_initializer": {"class_name": "Zeros", "config": {}}, "kernel_regularizer": null, "activation": "linear", "bias_regularizer": null}, "class_name": "Conv2D", "inbound_nodes": [[["block_15_add", 0, 0, {}]]]}, {"name": "block_16_expand_BN", "config": {"beta_initializer": {"class_name": "Zeros", "config": {}}, "center": true, "momentum": 0.999, "trainable": true, "gamma_constraint": null, "beta_regularizer": null, "axis": -1, "scale": true, "gamma_regularizer": null, "epsilon": 0.001, "name": "block_16_expand_BN", "gamma_initializer": {"class_name": "Ones", "config": {}}, "beta_constraint": null, "moving_variance_initializer": {"class_name": "Ones", "config": {}}, "moving_mean_initializer": {"class_name": "Zeros", "config": {}}}, "class_name": "BatchNormalization", "inbound_nodes": [[["block_16_expand", 0, 0, {}]]]}, {"name": "block_16_expand_relu", "config": {"name": "block_16_expand_relu", "max_value": 6.0, "threshold": 0.0, "trainable": true, "negative_slope": 0.0}, "class_name": "ReLU", "inbound_nodes": [[["block_16_expand_BN", 0, 0, {}]]]}, {"name": "block_16_depthwise", "config": {"depthwise_regularizer": null, "name": "block_16_depthwise", "kernel_size": [3, 3], "dilation_rate": [1, 1], "depthwise_initializer": {"class_name": "VarianceScaling", "config": {"scale": 1.0, "mode": "fan_avg", "distribution": "uniform", "seed": null}}, "depth_multiplier": 1, "bias_constraint": null, "trainable": true, "data_format": "channels_last", "depthwise_constraint": null, "use_bias": false, "strides": [1, 1], "padding": "same", "activity_regularizer": null, "bias_initializer": {"class_name": "Zeros", "config": {}}, "activation": "linear", "bias_regularizer": null}, "class_name": "DepthwiseConv2D", "inbound_nodes": [[["block_16_expand_relu", 0, 0, {}]]]}, {"name": "block_16_depthwise_BN", "config": {"beta_initializer": {"class_name": "Zeros", "config": {}}, "center": true, "momentum": 0.999, "trainable": true, "gamma_constraint": null, "beta_regularizer": null, "axis": -1, "scale": true, "gamma_regularizer": null, "epsilon": 0.001, "name": "block_16_depthwise_BN", "gamma_initializer": {"class_name": "Ones", "config": {}}, "beta_constraint": null, "moving_variance_initializer": {"class_name": "Ones", "config": {}}, "moving_mean_initializer": {"class_name": "Zeros", "config": {}}}, "class_name": "BatchNormalization", "inbound_nodes": [[["block_16_depthwise", 0, 0, {}]]]}, {"name": "block_16_depthwise_relu", "config": {"name": "block_16_depthwise_relu", "max_value": 6.0, "threshold": 0.0, "trainable": true, "negative_slope": 0.0}, "class_name": "ReLU", "inbound_nodes": [[["block_16_depthwise_BN", 0, 0, {}]]]}, {"name": "block_16_project", "config": {"kernel_constraint": null, "kernel_initializer": {"class_name": "VarianceScaling", "config": {"scale": 1.0, "mode": "fan_avg", "distribution": "uniform", "seed": null}}, "kernel_size": [1, 1], "dilation_rate": [1, 1], "padding": "same", "bias_constraint": null, "trainable": true, "data_format": "channels_last", "activity_regularizer": null, "use_bias": false, "strides": [1, 1], "filters": 320, "name": "block_16_project", "bias_initializer": {"class_name": "Zeros", "config": {}}, "kernel_regularizer": null, "activation": "linear", "bias_regularizer": null}, "class_name": "Conv2D", "inbound_nodes": [[["block_16_depthwise_relu", 0, 0, {}]]]}, {"name": "block_16_project_BN", "config": {"beta_initializer": {"class_name": "Zeros", "config": {}}, "center": true, "momentum": 0.999, "trainable": false, "gamma_constraint": null, "beta_regularizer": null, "axis": -1, "scale": true, "gamma_regularizer": null, "epsilon": 0.001, "name": "block_16_project_BN", "gamma_initializer": {"class_name": "Ones", "config": {}}, "beta_constraint": null, "moving_variance_initializer": {"class_name": "Ones", "config": {}}, "moving_mean_initializer": {"class_name": "Zeros", "config": {}}}, "class_name": "BatchNormalization", "inbound_nodes": [[["block_16_project", 0, 0, {}]]]}, {"name": "Conv_1", "config": {"kernel_constraint": null, "kernel_initializer": {"class_name": "VarianceScaling", "config": {"scale": 1.0, "mode": "fan_avg", "distribution": "uniform", "seed": null}}, "kernel_size": [1, 1], "dilation_rate": [1, 1], "padding": "valid", "bias_constraint": null, "trainable": false, "data_format": "channels_last", "activity_regularizer": null, "use_bias": false, "strides": [1, 1], "filters": 1280, "name": "Conv_1", "bias_initializer": {"class_name": "Zeros", "config": {}}, "kernel_regularizer": null, "activation": "linear", "bias_regularizer": null}, "class_name": "Conv2D", "inbound_nodes": [[["block_16_project_BN", 0, 0, {}]]]}, {"name": "Conv_1_bn", "config": {"beta_initializer": {"class_name": "Zeros", "config": {}}, "center": true, "momentum": 0.999, "trainable": false, "gamma_constraint": null, "beta_regularizer": null, "axis": -1, "scale": true, "gamma_regularizer": null, "epsilon": 0.001, "name": "Conv_1_bn", "gamma_initializer": {"class_name": "Ones", "config": {}}, "beta_constraint": null, "moving_variance_initializer": {"class_name": "Ones", "config": {}}, "moving_mean_initializer": {"class_name": "Zeros", "config": {}}}, "class_name": "BatchNormalization", "inbound_nodes": [[["Conv_1", 0, 0, {}]]]}, {"name": "out_relu", "config": {"name": "out_relu", "max_value": 6.0, "threshold": 0.0, "trainable": false, "negative_slope": 0.0}, "class_name": "ReLU", "inbound_nodes": [[["Conv_1_bn", 0, 0, {}]]]}, {"name": "avg_pool", "config": {"strides": [4, 4], "padding": "valid", "name": "avg_pool", "pool_size": [4, 4], "trainable": false, "data_format": "channels_last"}, "class_name": "AveragePooling2D", "inbound_nodes": [[["out_relu", 0, 0, {}]]]}, {"name": "flatten", "config": {"name": "flatten", "trainable": false, "data_format": "channels_last"}, "class_name": "Flatten", "inbound_nodes": [[["avg_pool", 0, 0, {}]]]}, {"name": "predictions", "config": {"kernel_constraint": null, "kernel_initializer": {"class_name": "VarianceScaling", "config": {"scale": 1.0, "mode": "fan_avg", "distribution": "uniform", "seed": null}}, "bias_constraint": null, "trainable": false, "units": 4, "use_bias": true, "bias_regularizer": null, "name": "predictions", "bias_initializer": {"class_name": "Zeros", "config": {}}, "kernel_regularizer": null, "activation": "softmax", "activity_regularizer": null}, "class_name": "Dense", "inbound_nodes": [[["flatten", 0, 0, {}]]]}]}}, "training_config": {"sample_weight_mode": null, "loss_weights": null, "optimizer_config": {"class_name": "SGD", "config": {"nesterov": true, "momentum": 0.8999999761581421, "decay": 0.0, "lr": 9.999999747378752e-05}}, "metrics": ["accuracy", "categorical_accuracy"], "loss": "categorical_crossentropy"}}, "weightsManifest": [{"paths": ["group1-shard1of3", "group1-shard2of3", "group1-shard3of3"], "weights": [{"name": "Conv1/kernel", "shape": [3, 3, 3, 32], "dtype": "float32"}, {"name": "Conv_1/kernel", "shape": [1, 1, 320, 1280], "dtype": "float32"}, {"name": "Conv_1_bn/gamma", "shape": [1280], "dtype": "float32"}, {"name": "Conv_1_bn/beta", "shape": [1280], "dtype": "float32"}, {"name": "Conv_1_bn/moving_mean", "shape": [1280], "dtype": "float32"}, {"name": "Conv_1_bn/moving_variance", "shape": [1280], "dtype": "float32"}, {"name": "block_10_depthwise/depthwise_kernel", "shape": [3, 3, 384, 1], "dtype": "float32"}, {"name": "block_10_depthwise_BN/gamma", "shape": [384], "dtype": "float32"}, {"name": "block_10_depthwise_BN/beta", "shape": [384], "dtype": "float32"}, {"name": "block_10_depthwise_BN/moving_mean", "shape": [384], "dtype": "float32"}, {"name": "block_10_depthwise_BN/moving_variance", "shape": [384], "dtype": "float32"}, {"name": "block_10_expand/kernel", "shape": [1, 1, 64, 384], "dtype": "float32"}, {"name": "block_10_expand_BN/gamma", "shape": [384], "dtype": "float32"}, {"name": "block_10_expand_BN/beta", "shape": [384], "dtype": "float32"}, {"name": "block_10_expand_BN/moving_mean", "shape": [384], "dtype": "float32"}, {"name": "block_10_expand_BN/moving_variance", "shape": [384], "dtype": "float32"}, {"name": "block_10_project/kernel", "shape": [1, 1, 384, 96], "dtype": "float32"}, {"name": "block_10_project_BN/gamma", "shape": [96], "dtype": "float32"}, {"name": "block_10_project_BN/beta", "shape": [96], "dtype": "float32"}, {"name": "block_10_project_BN/moving_mean", "shape": [96], "dtype": "float32"}, {"name": "block_10_project_BN/moving_variance", "shape": [96], "dtype": "float32"}, {"name": "block_11_depthwise/depthwise_kernel", "shape": [3, 3, 576, 1], "dtype": "float32"}, {"name": "block_11_depthwise_BN/gamma", "shape": [576], "dtype": "float32"}, {"name": "block_11_depthwise_BN/beta", "shape": [576], "dtype": "float32"}, {"name": "block_11_depthwise_BN/moving_mean", "shape": [576], "dtype": "float32"}, {"name": "block_11_depthwise_BN/moving_variance", "shape": [576], "dtype": "float32"}, {"name": "block_11_expand/kernel", "shape": [1, 1, 96, 576], "dtype": "float32"}, {"name": "block_11_expand_BN/gamma", "shape": [576], "dtype": "float32"}, {"name": "block_11_expand_BN/beta", "shape": [576], "dtype": "float32"}, {"name": "block_11_expand_BN/moving_mean", "shape": [576], "dtype": "float32"}, {"name": "block_11_expand_BN/moving_variance", "shape": [576], "dtype": "float32"}, {"name": "block_11_project/kernel", "shape": [1, 1, 576, 96], "dtype": "float32"}, {"name": "block_11_project_BN/gamma", "shape": [96], "dtype": "float32"}, {"name": "block_11_project_BN/beta", "shape": [96], "dtype": "float32"}, {"name": "block_11_project_BN/moving_mean", "shape": [96], "dtype": "float32"}, {"name": "block_11_project_BN/moving_variance", "shape": [96], "dtype": "float32"}, {"name": "block_12_depthwise/depthwise_kernel", "shape": [3, 3, 576, 1], "dtype": "float32"}, {"name": "block_12_depthwise_BN/gamma", "shape": [576], "dtype": "float32"}, {"name": "block_12_depthwise_BN/beta", "shape": [576], "dtype": "float32"}, {"name": "block_12_depthwise_BN/moving_mean", "shape": [576], "dtype": "float32"}, {"name": "block_12_depthwise_BN/moving_variance", "shape": [576], "dtype": "float32"}, {"name": "block_12_expand/kernel", "shape": [1, 1, 96, 576], "dtype": "float32"}, {"name": "block_12_expand_BN/gamma", "shape": [576], "dtype": "float32"}, {"name": "block_12_expand_BN/beta", "shape": [576], "dtype": "float32"}, {"name": "block_12_expand_BN/moving_mean", "shape": [576], "dtype": "float32"}, {"name": "block_12_expand_BN/moving_variance", "shape": [576], "dtype": "float32"}, {"name": "block_12_project/kernel", "shape": [1, 1, 576, 96], "dtype": "float32"}, {"name": "block_12_project_BN/gamma", "shape": [96], "dtype": "float32"}, {"name": "block_12_project_BN/beta", "shape": [96], "dtype": "float32"}, {"name": "block_12_project_BN/moving_mean", "shape": [96], "dtype": "float32"}, {"name": "block_12_project_BN/moving_variance", "shape": [96], "dtype": "float32"}, {"name": "block_13_depthwise/depthwise_kernel", "shape": [3, 3, 576, 1], "dtype": "float32"}, {"name": "block_13_depthwise_BN/gamma", "shape": [576], "dtype": "float32"}, {"name": "block_13_depthwise_BN/beta", "shape": [576], "dtype": "float32"}, {"name": "block_13_depthwise_BN/moving_mean", "shape": [576], "dtype": "float32"}, {"name": "block_13_depthwise_BN/moving_variance", "shape": [576], "dtype": "float32"}, {"name": "block_13_expand/kernel", "shape": [1, 1, 96, 576], "dtype": "float32"}, {"name": "block_13_expand_BN/gamma", "shape": [576], "dtype": "float32"}, {"name": "block_13_expand_BN/beta", "shape": [576], "dtype": "float32"}, {"name": "block_13_expand_BN/moving_mean", "shape": [576], "dtype": "float32"}, {"name": "block_13_expand_BN/moving_variance", "shape": [576], "dtype": "float32"}, {"name": "block_13_project/kernel", "shape": [1, 1, 576, 160], "dtype": "float32"}, {"name": "block_13_project_BN/gamma", "shape": [160], "dtype": "float32"}, {"name": "block_13_project_BN/beta", "shape": [160], "dtype": "float32"}, {"name": "block_13_project_BN/moving_mean", "shape": [160], "dtype": "float32"}, {"name": "block_13_project_BN/moving_variance", "shape": [160], "dtype": "float32"}, {"name": "block_14_depthwise/depthwise_kernel", "shape": [3, 3, 960, 1], "dtype": "float32"}, {"name": "block_14_depthwise_BN/gamma", "shape": [960], "dtype": "float32"}, {"name": "block_14_depthwise_BN/beta", "shape": [960], "dtype": "float32"}, {"name": "block_14_depthwise_BN/moving_mean", "shape": [960], "dtype": "float32"}, {"name": "block_14_depthwise_BN/moving_variance", "shape": [960], "dtype": "float32"}, {"name": "block_14_expand/kernel", "shape": [1, 1, 160, 960], "dtype": "float32"}, {"name": "block_14_expand_BN/gamma", "shape": [960], "dtype": "float32"}, {"name": "block_14_expand_BN/beta", "shape": [960], "dtype": "float32"}, {"name": "block_14_expand_BN/moving_mean", "shape": [960], "dtype": "float32"}, {"name": "block_14_expand_BN/moving_variance", "shape": [960], "dtype": "float32"}, {"name": "block_14_project/kernel", "shape": [1, 1, 960, 160], "dtype": "float32"}, {"name": "block_14_project_BN/gamma", "shape": [160], "dtype": "float32"}, {"name": "block_14_project_BN/beta", "shape": [160], "dtype": "float32"}, {"name": "block_14_project_BN/moving_mean", "shape": [160], "dtype": "float32"}, {"name": "block_14_project_BN/moving_variance", "shape": [160], "dtype": "float32"}, {"name": "block_15_depthwise/depthwise_kernel", "shape": [3, 3, 960, 1], "dtype": "float32"}, {"name": "block_15_depthwise_BN/gamma", "shape": [960], "dtype": "float32"}, {"name": "block_15_depthwise_BN/beta", "shape": [960], "dtype": "float32"}, {"name": "block_15_depthwise_BN/moving_mean", "shape": [960], "dtype": "float32"}, {"name": "block_15_depthwise_BN/moving_variance", "shape": [960], "dtype": "float32"}, {"name": "block_15_expand/kernel", "shape": [1, 1, 160, 960], "dtype": "float32"}, {"name": "block_15_expand_BN/gamma", "shape": [960], "dtype": "float32"}, {"name": "block_15_expand_BN/beta", "shape": [960], "dtype": "float32"}, {"name": "block_15_expand_BN/moving_mean", "shape": [960], "dtype": "float32"}, {"name": "block_15_expand_BN/moving_variance", "shape": [960], "dtype": "float32"}, {"name": "block_15_project/kernel", "shape": [1, 1, 960, 160], "dtype": "float32"}, {"name": "block_15_project_BN/gamma", "shape": [160], "dtype": "float32"}, {"name": "block_15_project_BN/beta", "shape": [160], "dtype": "float32"}, {"name": "block_15_project_BN/moving_mean", "shape": [160], "dtype": "float32"}, {"name": "block_15_project_BN/moving_variance", "shape": [160], "dtype": "float32"}, {"name": "block_16_depthwise/depthwise_kernel", "shape": [3, 3, 960, 1], "dtype": "float32"}, {"name": "block_16_depthwise_BN/gamma", "shape": [960], "dtype": "float32"}, {"name": "block_16_depthwise_BN/beta", "shape": [960], "dtype": "float32"}, {"name": "block_16_depthwise_BN/moving_mean", "shape": [960], "dtype": "float32"}, {"name": "block_16_depthwise_BN/moving_variance", "shape": [960], "dtype": "float32"}, {"name": "block_16_expand/kernel", "shape": [1, 1, 160, 960], "dtype": "float32"}, {"name": "block_16_expand_BN/gamma", "shape": [960], "dtype": "float32"}, {"name": "block_16_expand_BN/beta", "shape": [960], "dtype": "float32"}, {"name": "block_16_expand_BN/moving_mean", "shape": [960], "dtype": "float32"}, {"name": "block_16_expand_BN/moving_variance", "shape": [960], "dtype": "float32"}, {"name": "block_16_project/kernel", "shape": [1, 1, 960, 320], "dtype": "float32"}, {"name": "block_16_project_BN/gamma", "shape": [320], "dtype": "float32"}, {"name": "block_16_project_BN/beta", "shape": [320], "dtype": "float32"}, {"name": "block_16_project_BN/moving_mean", "shape": [320], "dtype": "float32"}, {"name": "block_16_project_BN/moving_variance", "shape": [320], "dtype": "float32"}, {"name": "block_1_depthwise/depthwise_kernel", "shape": [3, 3, 96, 1], "dtype": "float32"}, {"name": "block_1_depthwise_BN/gamma", "shape": [96], "dtype": "float32"}, {"name": "block_1_depthwise_BN/beta", "shape": [96], "dtype": "float32"}, {"name": "block_1_depthwise_BN/moving_mean", "shape": [96], "dtype": "float32"}, {"name": "block_1_depthwise_BN/moving_variance", "shape": [96], "dtype": "float32"}, {"name": "block_1_expand/kernel", "shape": [1, 1, 16, 96], "dtype": "float32"}, {"name": "block_1_expand_BN/gamma", "shape": [96], "dtype": "float32"}, {"name": "block_1_expand_BN/beta", "shape": [96], "dtype": "float32"}, {"name": "block_1_expand_BN/moving_mean", "shape": [96], "dtype": "float32"}, {"name": "block_1_expand_BN/moving_variance", "shape": [96], "dtype": "float32"}, {"name": "block_1_project/kernel", "shape": [1, 1, 96, 24], "dtype": "float32"}, {"name": "block_1_project_BN/gamma", "shape": [24], "dtype": "float32"}, {"name": "block_1_project_BN/beta", "shape": [24], "dtype": "float32"}, {"name": "block_1_project_BN/moving_mean", "shape": [24], "dtype": "float32"}, {"name": "block_1_project_BN/moving_variance", "shape": [24], "dtype": "float32"}, {"name": "block_2_depthwise/depthwise_kernel", "shape": [3, 3, 144, 1], "dtype": "float32"}, {"name": "block_2_depthwise_BN/gamma", "shape": [144], "dtype": "float32"}, {"name": "block_2_depthwise_BN/beta", "shape": [144], "dtype": "float32"}, {"name": "block_2_depthwise_BN/moving_mean", "shape": [144], "dtype": "float32"}, {"name": "block_2_depthwise_BN/moving_variance", "shape": [144], "dtype": "float32"}, {"name": "block_2_expand/kernel", "shape": [1, 1, 24, 144], "dtype": "float32"}, {"name": "block_2_expand_BN/gamma", "shape": [144], "dtype": "float32"}, {"name": "block_2_expand_BN/beta", "shape": [144], "dtype": "float32"}, {"name": "block_2_expand_BN/moving_mean", "shape": [144], "dtype": "float32"}, {"name": "block_2_expand_BN/moving_variance", "shape": [144], "dtype": "float32"}, {"name": "block_2_project/kernel", "shape": [1, 1, 144, 24], "dtype": "float32"}, {"name": "block_2_project_BN/gamma", "shape": [24], "dtype": "float32"}, {"name": "block_2_project_BN/beta", "shape": [24], "dtype": "float32"}, {"name": "block_2_project_BN/moving_mean", "shape": [24], "dtype": "float32"}, {"name": "block_2_project_BN/moving_variance", "shape": [24], "dtype": "float32"}, {"name": "block_3_depthwise/depthwise_kernel", "shape": [3, 3, 144, 1], "dtype": "float32"}, {"name": "block_3_depthwise_BN/gamma", "shape": [144], "dtype": "float32"}, {"name": "block_3_depthwise_BN/beta", "shape": [144], "dtype": "float32"}, {"name": "block_3_depthwise_BN/moving_mean", "shape": [144], "dtype": "float32"}, {"name": "block_3_depthwise_BN/moving_variance", "shape": [144], "dtype": "float32"}, {"name": "block_3_expand/kernel", "shape": [1, 1, 24, 144], "dtype": "float32"}, {"name": "block_3_expand_BN/gamma", "shape": [144], "dtype": "float32"}, {"name": "block_3_expand_BN/beta", "shape": [144], "dtype": "float32"}, {"name": "block_3_expand_BN/moving_mean", "shape": [144], "dtype": "float32"}, {"name": "block_3_expand_BN/moving_variance", "shape": [144], "dtype": "float32"}, {"name": "block_3_project/kernel", "shape": [1, 1, 144, 32], "dtype": "float32"}, {"name": "block_3_project_BN/gamma", "shape": [32], "dtype": "float32"}, {"name": "block_3_project_BN/beta", "shape": [32], "dtype": "float32"}, {"name": "block_3_project_BN/moving_mean", "shape": [32], "dtype": "float32"}, {"name": "block_3_project_BN/moving_variance", "shape": [32], "dtype": "float32"}, {"name": "block_4_depthwise/depthwise_kernel", "shape": [3, 3, 192, 1], "dtype": "float32"}, {"name": "block_4_depthwise_BN/gamma", "shape": [192], "dtype": "float32"}, {"name": "block_4_depthwise_BN/beta", "shape": [192], "dtype": "float32"}, {"name": "block_4_depthwise_BN/moving_mean", "shape": [192], "dtype": "float32"}, {"name": "block_4_depthwise_BN/moving_variance", "shape": [192], "dtype": "float32"}, {"name": "block_4_expand/kernel", "shape": [1, 1, 32, 192], "dtype": "float32"}, {"name": "block_4_expand_BN/gamma", "shape": [192], "dtype": "float32"}, {"name": "block_4_expand_BN/beta", "shape": [192], "dtype": "float32"}, {"name": "block_4_expand_BN/moving_mean", "shape": [192], "dtype": "float32"}, {"name": "block_4_expand_BN/moving_variance", "shape": [192], "dtype": "float32"}, {"name": "block_4_project/kernel", "shape": [1, 1, 192, 32], "dtype": "float32"}, {"name": "block_4_project_BN/gamma", "shape": [32], "dtype": "float32"}, {"name": "block_4_project_BN/beta", "shape": [32], "dtype": "float32"}, {"name": "block_4_project_BN/moving_mean", "shape": [32], "dtype": "float32"}, {"name": "block_4_project_BN/moving_variance", "shape": [32], "dtype": "float32"}, {"name": "block_5_depthwise/depthwise_kernel", "shape": [3, 3, 192, 1], "dtype": "float32"}, {"name": "block_5_depthwise_BN/gamma", "shape": [192], "dtype": "float32"}, {"name": "block_5_depthwise_BN/beta", "shape": [192], "dtype": "float32"}, {"name": "block_5_depthwise_BN/moving_mean", "shape": [192], "dtype": "float32"}, {"name": "block_5_depthwise_BN/moving_variance", "shape": [192], "dtype": "float32"}, {"name": "block_5_expand/kernel", "shape": [1, 1, 32, 192], "dtype": "float32"}, {"name": "block_5_expand_BN/gamma", "shape": [192], "dtype": "float32"}, {"name": "block_5_expand_BN/beta", "shape": [192], "dtype": "float32"}, {"name": "block_5_expand_BN/moving_mean", "shape": [192], "dtype": "float32"}, {"name": "block_5_expand_BN/moving_variance", "shape": [192], "dtype": "float32"}, {"name": "block_5_project/kernel", "shape": [1, 1, 192, 32], "dtype": "float32"}, {"name": "block_5_project_BN/gamma", "shape": [32], "dtype": "float32"}, {"name": "block_5_project_BN/beta", "shape": [32], "dtype": "float32"}, {"name": "block_5_project_BN/moving_mean", "shape": [32], "dtype": "float32"}, {"name": "block_5_project_BN/moving_variance", "shape": [32], "dtype": "float32"}, {"name": "block_6_depthwise/depthwise_kernel", "shape": [3, 3, 192, 1], "dtype": "float32"}, {"name": "block_6_depthwise_BN/gamma", "shape": [192], "dtype": "float32"}, {"name": "block_6_depthwise_BN/beta", "shape": [192], "dtype": "float32"}, {"name": "block_6_depthwise_BN/moving_mean", "shape": [192], "dtype": "float32"}, {"name": "block_6_depthwise_BN/moving_variance", "shape": [192], "dtype": "float32"}, {"name": "block_6_expand/kernel", "shape": [1, 1, 32, 192], "dtype": "float32"}, {"name": "block_6_expand_BN/gamma", "shape": [192], "dtype": "float32"}, {"name": "block_6_expand_BN/beta", "shape": [192], "dtype": "float32"}, {"name": "block_6_expand_BN/moving_mean", "shape": [192], "dtype": "float32"}, {"name": "block_6_expand_BN/moving_variance", "shape": [192], "dtype": "float32"}, {"name": "block_6_project/kernel", "shape": [1, 1, 192, 64], "dtype": "float32"}, {"name": "block_6_project_BN/gamma", "shape": [64], "dtype": "float32"}, {"name": "block_6_project_BN/beta", "shape": [64], "dtype": "float32"}, {"name": "block_6_project_BN/moving_mean", "shape": [64], "dtype": "float32"}, {"name": "block_6_project_BN/moving_variance", "shape": [64], "dtype": "float32"}, {"name": "block_7_depthwise/depthwise_kernel", "shape": [3, 3, 384, 1], "dtype": "float32"}, {"name": "block_7_depthwise_BN/gamma", "shape": [384], "dtype": "float32"}, {"name": "block_7_depthwise_BN/beta", "shape": [384], "dtype": "float32"}, {"name": "block_7_depthwise_BN/moving_mean", "shape": [384], "dtype": "float32"}, {"name": "block_7_depthwise_BN/moving_variance", "shape": [384], "dtype": "float32"}, {"name": "block_7_expand/kernel", "shape": [1, 1, 64, 384], "dtype": "float32"}, {"name": "block_7_expand_BN/gamma", "shape": [384], "dtype": "float32"}, {"name": "block_7_expand_BN/beta", "shape": [384], "dtype": "float32"}, {"name": "block_7_expand_BN/moving_mean", "shape": [384], "dtype": "float32"}, {"name": "block_7_expand_BN/moving_variance", "shape": [384], "dtype": "float32"}, {"name": "block_7_project/kernel", "shape": [1, 1, 384, 64], "dtype": "float32"}, {"name": "block_7_project_BN/gamma", "shape": [64], "dtype": "float32"}, {"name": "block_7_project_BN/beta", "shape": [64], "dtype": "float32"}, {"name": "block_7_project_BN/moving_mean", "shape": [64], "dtype": "float32"}, {"name": "block_7_project_BN/moving_variance", "shape": [64], "dtype": "float32"}, {"name": "block_8_depthwise/depthwise_kernel", "shape": [3, 3, 384, 1], "dtype": "float32"}, {"name": "block_8_depthwise_BN/gamma", "shape": [384], "dtype": "float32"}, {"name": "block_8_depthwise_BN/beta", "shape": [384], "dtype": "float32"}, {"name": "block_8_depthwise_BN/moving_mean", "shape": [384], "dtype": "float32"}, {"name": "block_8_depthwise_BN/moving_variance", "shape": [384], "dtype": "float32"}, {"name": "block_8_expand/kernel", "shape": [1, 1, 64, 384], "dtype": "float32"}, {"name": "block_8_expand_BN/gamma", "shape": [384], "dtype": "float32"}, {"name": "block_8_expand_BN/beta", "shape": [384], "dtype": "float32"}, {"name": "block_8_expand_BN/moving_mean", "shape": [384], "dtype": "float32"}, {"name": "block_8_expand_BN/moving_variance", "shape": [384], "dtype": "float32"}, {"name": "block_8_project/kernel", "shape": [1, 1, 384, 64], "dtype": "float32"}, {"name": "block_8_project_BN/gamma", "shape": [64], "dtype": "float32"}, {"name": "block_8_project_BN/beta", "shape": [64], "dtype": "float32"}, {"name": "block_8_project_BN/moving_mean", "shape": [64], "dtype": "float32"}, {"name": "block_8_project_BN/moving_variance", "shape": [64], "dtype": "float32"}, {"name": "block_9_depthwise/depthwise_kernel", "shape": [3, 3, 384, 1], "dtype": "float32"}, {"name": "block_9_depthwise_BN/gamma", "shape": [384], "dtype": "float32"}, {"name": "block_9_depthwise_BN/beta", "shape": [384], "dtype": "float32"}, {"name": "block_9_depthwise_BN/moving_mean", "shape": [384], "dtype": "float32"}, {"name": "block_9_depthwise_BN/moving_variance", "shape": [384], "dtype": "float32"}, {"name": "block_9_expand/kernel", "shape": [1, 1, 64, 384], "dtype": "float32"}, {"name": "block_9_expand_BN/gamma", "shape": [384], "dtype": "float32"}, {"name": "block_9_expand_BN/beta", "shape": [384], "dtype": "float32"}, {"name": "block_9_expand_BN/moving_mean", "shape": [384], "dtype": "float32"}, {"name": "block_9_expand_BN/moving_variance", "shape": [384], "dtype": "float32"}, {"name": "block_9_project/kernel", "shape": [1, 1, 384, 64], "dtype": "float32"}, {"name": "block_9_project_BN/gamma", "shape": [64], "dtype": "float32"}, {"name": "block_9_project_BN/beta", "shape": [64], "dtype": "float32"}, {"name": "block_9_project_BN/moving_mean", "shape": [64], "dtype": "float32"}, {"name": "block_9_project_BN/moving_variance", "shape": [64], "dtype": "float32"}, {"name": "bn_Conv1/gamma", "shape": [32], "dtype": "float32"}, {"name": "bn_Conv1/beta", "shape": [32], "dtype": "float32"}, {"name": "bn_Conv1/moving_mean", "shape": [32], "dtype": "float32"}, {"name": "bn_Conv1/moving_variance", "shape": [32], "dtype": "float32"}, {"name": "expanded_conv_depthwise/depthwise_kernel", "shape": [3, 3, 32, 1], "dtype": "float32"}, {"name": "expanded_conv_depthwise_BN/gamma", "shape": [32], "dtype": "float32"}, {"name": "expanded_conv_depthwise_BN/beta", "shape": [32], "dtype": "float32"}, {"name": "expanded_conv_depthwise_BN/moving_mean", "shape": [32], "dtype": "float32"}, {"name": "expanded_conv_depthwise_BN/moving_variance", "shape": [32], "dtype": "float32"}, {"name": "expanded_conv_project/kernel", "shape": [1, 1, 32, 16], "dtype": "float32"}, {"name": "expanded_conv_project_BN/gamma", "shape": [16], "dtype": "float32"}, {"name": "expanded_conv_project_BN/beta", "shape": [16], "dtype": "float32"}, {"name": "expanded_conv_project_BN/moving_mean", "shape": [16], "dtype": "float32"}, {"name": "expanded_conv_project_BN/moving_variance", "shape": [16], "dtype": "float32"}, {"name": "predictions/kernel", "shape": [1280, 4], "dtype": "float32"}, {"name": "predictions/bias", "shape": [4], "dtype": "float32"}]}]}